<?xml version="1.0"?>
<net name="main_graph" version="11">
	<layers>
		<layer id="0" name="images" type="Parameter" version="opset1">
			<data shape="1,3,320,320" element_type="f32" />
			<rt_info>
				<attribute name="old_api_map_element_type" version="0" value="f16" />
			</rt_info>
			<output>
				<port id="0" precision="FP32" names="images">
					<dim>1</dim>
					<dim>3</dim>
					<dim>320</dim>
					<dim>320</dim>
				</port>
			</output>
		</layer>
		<layer id="1" name="onnx::Conv_693_compressed" type="Const" version="opset1">
			<data element_type="f16" shape="32, 3, 3, 3" offset="0" size="1728" />
			<output>
				<port id="0" precision="FP16">
					<dim>32</dim>
					<dim>3</dim>
					<dim>3</dim>
					<dim>3</dim>
				</port>
			</output>
		</layer>
		<layer id="2" name="onnx::Conv_693" type="Convert" version="opset1">
			<data destination_type="f32" />
			<rt_info>
				<attribute name="decompression" version="0" />
			</rt_info>
			<input>
				<port id="0" precision="FP16">
					<dim>32</dim>
					<dim>3</dim>
					<dim>3</dim>
					<dim>3</dim>
				</port>
			</input>
			<output>
				<port id="1" precision="FP32" names="onnx::Conv_693">
					<dim>32</dim>
					<dim>3</dim>
					<dim>3</dim>
					<dim>3</dim>
				</port>
			</output>
		</layer>
		<layer id="3" name="/model.0/conv/conv.0/Conv/WithoutBiases" type="Convolution" version="opset1">
			<data strides="2, 2" dilations="1, 1" pads_begin="1, 1" pads_end="1, 1" auto_pad="explicit" />
			<input>
				<port id="0" precision="FP32">
					<dim>1</dim>
					<dim>3</dim>
					<dim>320</dim>
					<dim>320</dim>
				</port>
				<port id="1" precision="FP32">
					<dim>32</dim>
					<dim>3</dim>
					<dim>3</dim>
					<dim>3</dim>
				</port>
			</input>
			<output>
				<port id="2" precision="FP32">
					<dim>1</dim>
					<dim>32</dim>
					<dim>160</dim>
					<dim>160</dim>
				</port>
			</output>
		</layer>
		<layer id="4" name="Reshape_177_compressed" type="Const" version="opset1">
			<data element_type="f16" shape="1, 32, 1, 1" offset="1728" size="64" />
			<output>
				<port id="0" precision="FP16">
					<dim>1</dim>
					<dim>32</dim>
					<dim>1</dim>
					<dim>1</dim>
				</port>
			</output>
		</layer>
		<layer id="5" name="Reshape_177" type="Convert" version="opset1">
			<data destination_type="f32" />
			<rt_info>
				<attribute name="decompression" version="0" />
			</rt_info>
			<input>
				<port id="0" precision="FP16">
					<dim>1</dim>
					<dim>32</dim>
					<dim>1</dim>
					<dim>1</dim>
				</port>
			</input>
			<output>
				<port id="1" precision="FP32">
					<dim>1</dim>
					<dim>32</dim>
					<dim>1</dim>
					<dim>1</dim>
				</port>
			</output>
		</layer>
		<layer id="6" name="/model.0/conv/conv.0/Conv" type="Add" version="opset1">
			<data auto_broadcast="numpy" />
			<input>
				<port id="0" precision="FP32">
					<dim>1</dim>
					<dim>32</dim>
					<dim>160</dim>
					<dim>160</dim>
				</port>
				<port id="1" precision="FP32">
					<dim>1</dim>
					<dim>32</dim>
					<dim>1</dim>
					<dim>1</dim>
				</port>
			</input>
			<output>
				<port id="2" precision="FP32" names="/model.0/conv/conv.0/Conv_output_0">
					<dim>1</dim>
					<dim>32</dim>
					<dim>160</dim>
					<dim>160</dim>
				</port>
			</output>
		</layer>
		<layer id="7" name="/model.0/conv/conv.2/Relu" type="ReLU" version="opset1">
			<input>
				<port id="0" precision="FP32">
					<dim>1</dim>
					<dim>32</dim>
					<dim>160</dim>
					<dim>160</dim>
				</port>
			</input>
			<output>
				<port id="1" precision="FP32" names="/model.0/conv/conv.2/Relu_output_0">
					<dim>1</dim>
					<dim>32</dim>
					<dim>160</dim>
					<dim>160</dim>
				</port>
			</output>
		</layer>
		<layer id="8" name="/model.0/maxpool/MaxPool" type="MaxPool" version="opset8">
			<data strides="2, 2" dilations="1, 1" pads_begin="1, 1" pads_end="1, 1" kernel="3, 3" rounding_type="floor" auto_pad="explicit" index_element_type="i64" axis="0" />
			<input>
				<port id="0" precision="FP32">
					<dim>1</dim>
					<dim>32</dim>
					<dim>160</dim>
					<dim>160</dim>
				</port>
			</input>
			<output>
				<port id="1" precision="FP32" names="/model.0/maxpool/MaxPool_output_0">
					<dim>1</dim>
					<dim>32</dim>
					<dim>80</dim>
					<dim>80</dim>
				</port>
				<port id="2" precision="I64">
					<dim>1</dim>
					<dim>32</dim>
					<dim>80</dim>
					<dim>80</dim>
				</port>
			</output>
		</layer>
		<layer id="9" name="Reshape_190_compressed" type="Const" version="opset1">
			<data element_type="f16" shape="32, 1, 1, 3, 3" offset="1792" size="576" />
			<output>
				<port id="0" precision="FP16">
					<dim>32</dim>
					<dim>1</dim>
					<dim>1</dim>
					<dim>3</dim>
					<dim>3</dim>
				</port>
			</output>
		</layer>
		<layer id="10" name="Reshape_190" type="Convert" version="opset1">
			<data destination_type="f32" />
			<rt_info>
				<attribute name="decompression" version="0" />
			</rt_info>
			<input>
				<port id="0" precision="FP16">
					<dim>32</dim>
					<dim>1</dim>
					<dim>1</dim>
					<dim>3</dim>
					<dim>3</dim>
				</port>
			</input>
			<output>
				<port id="1" precision="FP32">
					<dim>32</dim>
					<dim>1</dim>
					<dim>1</dim>
					<dim>3</dim>
					<dim>3</dim>
				</port>
			</output>
		</layer>
		<layer id="11" name="/model.1/branch1/branch1.0/Conv/WithoutBiases" type="GroupConvolution" version="opset1">
			<data strides="2, 2" pads_begin="1, 1" pads_end="1, 1" dilations="1, 1" auto_pad="explicit" />
			<input>
				<port id="0" precision="FP32">
					<dim>1</dim>
					<dim>32</dim>
					<dim>80</dim>
					<dim>80</dim>
				</port>
				<port id="1" precision="FP32">
					<dim>32</dim>
					<dim>1</dim>
					<dim>1</dim>
					<dim>3</dim>
					<dim>3</dim>
				</port>
			</input>
			<output>
				<port id="2" precision="FP32">
					<dim>1</dim>
					<dim>32</dim>
					<dim>40</dim>
					<dim>40</dim>
				</port>
			</output>
		</layer>
		<layer id="12" name="Reshape_242_compressed" type="Const" version="opset1">
			<data element_type="f16" shape="1, 32, 1, 1" offset="2368" size="64" />
			<output>
				<port id="0" precision="FP16">
					<dim>1</dim>
					<dim>32</dim>
					<dim>1</dim>
					<dim>1</dim>
				</port>
			</output>
		</layer>
		<layer id="13" name="Reshape_242" type="Convert" version="opset1">
			<data destination_type="f32" />
			<rt_info>
				<attribute name="decompression" version="0" />
			</rt_info>
			<input>
				<port id="0" precision="FP16">
					<dim>1</dim>
					<dim>32</dim>
					<dim>1</dim>
					<dim>1</dim>
				</port>
			</input>
			<output>
				<port id="1" precision="FP32">
					<dim>1</dim>
					<dim>32</dim>
					<dim>1</dim>
					<dim>1</dim>
				</port>
			</output>
		</layer>
		<layer id="14" name="/model.1/branch1/branch1.0/Conv" type="Add" version="opset1">
			<data auto_broadcast="numpy" />
			<input>
				<port id="0" precision="FP32">
					<dim>1</dim>
					<dim>32</dim>
					<dim>40</dim>
					<dim>40</dim>
				</port>
				<port id="1" precision="FP32">
					<dim>1</dim>
					<dim>32</dim>
					<dim>1</dim>
					<dim>1</dim>
				</port>
			</input>
			<output>
				<port id="2" precision="FP32" names="/model.1/branch1/branch1.0/Conv_output_0">
					<dim>1</dim>
					<dim>32</dim>
					<dim>40</dim>
					<dim>40</dim>
				</port>
			</output>
		</layer>
		<layer id="15" name="model.1.branch1.1.weight_compressed" type="Const" version="opset1">
			<data element_type="f16" shape="60, 32, 1, 1" offset="2432" size="3840" />
			<output>
				<port id="0" precision="FP16">
					<dim>60</dim>
					<dim>32</dim>
					<dim>1</dim>
					<dim>1</dim>
				</port>
			</output>
		</layer>
		<layer id="16" name="model.1.branch1.1.weight" type="Convert" version="opset1">
			<data destination_type="f32" />
			<rt_info>
				<attribute name="decompression" version="0" />
			</rt_info>
			<input>
				<port id="0" precision="FP16">
					<dim>60</dim>
					<dim>32</dim>
					<dim>1</dim>
					<dim>1</dim>
				</port>
			</input>
			<output>
				<port id="1" precision="FP32" names="model.1.branch1.1.weight">
					<dim>60</dim>
					<dim>32</dim>
					<dim>1</dim>
					<dim>1</dim>
				</port>
			</output>
		</layer>
		<layer id="17" name="/model.1/branch1/branch1.1/Conv/WithoutBiases" type="Convolution" version="opset1">
			<data strides="1, 1" dilations="1, 1" pads_begin="0, 0" pads_end="0, 0" auto_pad="explicit" />
			<input>
				<port id="0" precision="FP32">
					<dim>1</dim>
					<dim>32</dim>
					<dim>40</dim>
					<dim>40</dim>
				</port>
				<port id="1" precision="FP32">
					<dim>60</dim>
					<dim>32</dim>
					<dim>1</dim>
					<dim>1</dim>
				</port>
			</input>
			<output>
				<port id="2" precision="FP32">
					<dim>1</dim>
					<dim>60</dim>
					<dim>40</dim>
					<dim>40</dim>
				</port>
			</output>
		</layer>
		<layer id="18" name="Reshape_257_compressed" type="Const" version="opset1">
			<data element_type="f16" shape="1, 60, 1, 1" offset="6272" size="120" />
			<output>
				<port id="0" precision="FP16">
					<dim>1</dim>
					<dim>60</dim>
					<dim>1</dim>
					<dim>1</dim>
				</port>
			</output>
		</layer>
		<layer id="19" name="Reshape_257" type="Convert" version="opset1">
			<data destination_type="f32" />
			<rt_info>
				<attribute name="decompression" version="0" />
			</rt_info>
			<input>
				<port id="0" precision="FP16">
					<dim>1</dim>
					<dim>60</dim>
					<dim>1</dim>
					<dim>1</dim>
				</port>
			</input>
			<output>
				<port id="1" precision="FP32">
					<dim>1</dim>
					<dim>60</dim>
					<dim>1</dim>
					<dim>1</dim>
				</port>
			</output>
		</layer>
		<layer id="20" name="/model.1/branch1/branch1.1/Conv" type="Add" version="opset1">
			<data auto_broadcast="numpy" />
			<input>
				<port id="0" precision="FP32">
					<dim>1</dim>
					<dim>60</dim>
					<dim>40</dim>
					<dim>40</dim>
				</port>
				<port id="1" precision="FP32">
					<dim>1</dim>
					<dim>60</dim>
					<dim>1</dim>
					<dim>1</dim>
				</port>
			</input>
			<output>
				<port id="2" precision="FP32" names="/model.1/branch1/branch1.1/Conv_output_0">
					<dim>1</dim>
					<dim>60</dim>
					<dim>40</dim>
					<dim>40</dim>
				</port>
			</output>
		</layer>
		<layer id="21" name="/model.1/branch1/branch1.2/Relu" type="ReLU" version="opset1">
			<input>
				<port id="0" precision="FP32">
					<dim>1</dim>
					<dim>60</dim>
					<dim>40</dim>
					<dim>40</dim>
				</port>
			</input>
			<output>
				<port id="1" precision="FP32" names="/model.1/branch1/branch1.2/Relu_output_0">
					<dim>1</dim>
					<dim>60</dim>
					<dim>40</dim>
					<dim>40</dim>
				</port>
			</output>
		</layer>
		<layer id="22" name="model.1.branch2.0.weight_compressed" type="Const" version="opset1">
			<data element_type="f16" shape="60, 32, 1, 1" offset="6392" size="3840" />
			<output>
				<port id="0" precision="FP16">
					<dim>60</dim>
					<dim>32</dim>
					<dim>1</dim>
					<dim>1</dim>
				</port>
			</output>
		</layer>
		<layer id="23" name="model.1.branch2.0.weight" type="Convert" version="opset1">
			<data destination_type="f32" />
			<rt_info>
				<attribute name="decompression" version="0" />
			</rt_info>
			<input>
				<port id="0" precision="FP16">
					<dim>60</dim>
					<dim>32</dim>
					<dim>1</dim>
					<dim>1</dim>
				</port>
			</input>
			<output>
				<port id="1" precision="FP32" names="model.1.branch2.0.weight">
					<dim>60</dim>
					<dim>32</dim>
					<dim>1</dim>
					<dim>1</dim>
				</port>
			</output>
		</layer>
		<layer id="24" name="/model.1/branch2/branch2.0/Conv/WithoutBiases" type="Convolution" version="opset1">
			<data strides="1, 1" dilations="1, 1" pads_begin="0, 0" pads_end="0, 0" auto_pad="explicit" />
			<input>
				<port id="0" precision="FP32">
					<dim>1</dim>
					<dim>32</dim>
					<dim>80</dim>
					<dim>80</dim>
				</port>
				<port id="1" precision="FP32">
					<dim>60</dim>
					<dim>32</dim>
					<dim>1</dim>
					<dim>1</dim>
				</port>
			</input>
			<output>
				<port id="2" precision="FP32">
					<dim>1</dim>
					<dim>60</dim>
					<dim>80</dim>
					<dim>80</dim>
				</port>
			</output>
		</layer>
		<layer id="25" name="Reshape_273_compressed" type="Const" version="opset1">
			<data element_type="f16" shape="1, 60, 1, 1" offset="10232" size="120" />
			<output>
				<port id="0" precision="FP16">
					<dim>1</dim>
					<dim>60</dim>
					<dim>1</dim>
					<dim>1</dim>
				</port>
			</output>
		</layer>
		<layer id="26" name="Reshape_273" type="Convert" version="opset1">
			<data destination_type="f32" />
			<rt_info>
				<attribute name="decompression" version="0" />
			</rt_info>
			<input>
				<port id="0" precision="FP16">
					<dim>1</dim>
					<dim>60</dim>
					<dim>1</dim>
					<dim>1</dim>
				</port>
			</input>
			<output>
				<port id="1" precision="FP32">
					<dim>1</dim>
					<dim>60</dim>
					<dim>1</dim>
					<dim>1</dim>
				</port>
			</output>
		</layer>
		<layer id="27" name="/model.1/branch2/branch2.0/Conv" type="Add" version="opset1">
			<data auto_broadcast="numpy" />
			<input>
				<port id="0" precision="FP32">
					<dim>1</dim>
					<dim>60</dim>
					<dim>80</dim>
					<dim>80</dim>
				</port>
				<port id="1" precision="FP32">
					<dim>1</dim>
					<dim>60</dim>
					<dim>1</dim>
					<dim>1</dim>
				</port>
			</input>
			<output>
				<port id="2" precision="FP32" names="/model.1/branch2/branch2.0/Conv_output_0">
					<dim>1</dim>
					<dim>60</dim>
					<dim>80</dim>
					<dim>80</dim>
				</port>
			</output>
		</layer>
		<layer id="28" name="/model.1/branch2/branch2.1/Relu" type="ReLU" version="opset1">
			<input>
				<port id="0" precision="FP32">
					<dim>1</dim>
					<dim>60</dim>
					<dim>80</dim>
					<dim>80</dim>
				</port>
			</input>
			<output>
				<port id="1" precision="FP32" names="/model.1/branch2/branch2.1/Relu_output_0">
					<dim>1</dim>
					<dim>60</dim>
					<dim>80</dim>
					<dim>80</dim>
				</port>
			</output>
		</layer>
		<layer id="29" name="Reshape_285_compressed" type="Const" version="opset1">
			<data element_type="f16" shape="60, 1, 1, 3, 3" offset="10352" size="1080" />
			<output>
				<port id="0" precision="FP16">
					<dim>60</dim>
					<dim>1</dim>
					<dim>1</dim>
					<dim>3</dim>
					<dim>3</dim>
				</port>
			</output>
		</layer>
		<layer id="30" name="Reshape_285" type="Convert" version="opset1">
			<data destination_type="f32" />
			<rt_info>
				<attribute name="decompression" version="0" />
			</rt_info>
			<input>
				<port id="0" precision="FP16">
					<dim>60</dim>
					<dim>1</dim>
					<dim>1</dim>
					<dim>3</dim>
					<dim>3</dim>
				</port>
			</input>
			<output>
				<port id="1" precision="FP32">
					<dim>60</dim>
					<dim>1</dim>
					<dim>1</dim>
					<dim>3</dim>
					<dim>3</dim>
				</port>
			</output>
		</layer>
		<layer id="31" name="/model.1/branch2/branch2.2/Conv/WithoutBiases" type="GroupConvolution" version="opset1">
			<data strides="2, 2" pads_begin="1, 1" pads_end="1, 1" dilations="1, 1" auto_pad="explicit" />
			<input>
				<port id="0" precision="FP32">
					<dim>1</dim>
					<dim>60</dim>
					<dim>80</dim>
					<dim>80</dim>
				</port>
				<port id="1" precision="FP32">
					<dim>60</dim>
					<dim>1</dim>
					<dim>1</dim>
					<dim>3</dim>
					<dim>3</dim>
				</port>
			</input>
			<output>
				<port id="2" precision="FP32">
					<dim>1</dim>
					<dim>60</dim>
					<dim>40</dim>
					<dim>40</dim>
				</port>
			</output>
		</layer>
		<layer id="32" name="Reshape_337_compressed" type="Const" version="opset1">
			<data element_type="f16" shape="1, 60, 1, 1" offset="11432" size="120" />
			<output>
				<port id="0" precision="FP16">
					<dim>1</dim>
					<dim>60</dim>
					<dim>1</dim>
					<dim>1</dim>
				</port>
			</output>
		</layer>
		<layer id="33" name="Reshape_337" type="Convert" version="opset1">
			<data destination_type="f32" />
			<rt_info>
				<attribute name="decompression" version="0" />
			</rt_info>
			<input>
				<port id="0" precision="FP16">
					<dim>1</dim>
					<dim>60</dim>
					<dim>1</dim>
					<dim>1</dim>
				</port>
			</input>
			<output>
				<port id="1" precision="FP32">
					<dim>1</dim>
					<dim>60</dim>
					<dim>1</dim>
					<dim>1</dim>
				</port>
			</output>
		</layer>
		<layer id="34" name="/model.1/branch2/branch2.2/Conv" type="Add" version="opset1">
			<data auto_broadcast="numpy" />
			<input>
				<port id="0" precision="FP32">
					<dim>1</dim>
					<dim>60</dim>
					<dim>40</dim>
					<dim>40</dim>
				</port>
				<port id="1" precision="FP32">
					<dim>1</dim>
					<dim>60</dim>
					<dim>1</dim>
					<dim>1</dim>
				</port>
			</input>
			<output>
				<port id="2" precision="FP32" names="/model.1/branch2/branch2.2/Conv_output_0">
					<dim>1</dim>
					<dim>60</dim>
					<dim>40</dim>
					<dim>40</dim>
				</port>
			</output>
		</layer>
		<layer id="35" name="model.1.branch2.3.weight_compressed" type="Const" version="opset1">
			<data element_type="f16" shape="60, 60, 1, 1" offset="11552" size="7200" />
			<output>
				<port id="0" precision="FP16">
					<dim>60</dim>
					<dim>60</dim>
					<dim>1</dim>
					<dim>1</dim>
				</port>
			</output>
		</layer>
		<layer id="36" name="model.1.branch2.3.weight" type="Convert" version="opset1">
			<data destination_type="f32" />
			<rt_info>
				<attribute name="decompression" version="0" />
			</rt_info>
			<input>
				<port id="0" precision="FP16">
					<dim>60</dim>
					<dim>60</dim>
					<dim>1</dim>
					<dim>1</dim>
				</port>
			</input>
			<output>
				<port id="1" precision="FP32" names="model.1.branch2.3.weight">
					<dim>60</dim>
					<dim>60</dim>
					<dim>1</dim>
					<dim>1</dim>
				</port>
			</output>
		</layer>
		<layer id="37" name="/model.1/branch2/branch2.3/Conv/WithoutBiases" type="Convolution" version="opset1">
			<data strides="1, 1" dilations="1, 1" pads_begin="0, 0" pads_end="0, 0" auto_pad="explicit" />
			<input>
				<port id="0" precision="FP32">
					<dim>1</dim>
					<dim>60</dim>
					<dim>40</dim>
					<dim>40</dim>
				</port>
				<port id="1" precision="FP32">
					<dim>60</dim>
					<dim>60</dim>
					<dim>1</dim>
					<dim>1</dim>
				</port>
			</input>
			<output>
				<port id="2" precision="FP32">
					<dim>1</dim>
					<dim>60</dim>
					<dim>40</dim>
					<dim>40</dim>
				</port>
			</output>
		</layer>
		<layer id="38" name="Reshape_352_compressed" type="Const" version="opset1">
			<data element_type="f16" shape="1, 60, 1, 1" offset="18752" size="120" />
			<output>
				<port id="0" precision="FP16">
					<dim>1</dim>
					<dim>60</dim>
					<dim>1</dim>
					<dim>1</dim>
				</port>
			</output>
		</layer>
		<layer id="39" name="Reshape_352" type="Convert" version="opset1">
			<data destination_type="f32" />
			<rt_info>
				<attribute name="decompression" version="0" />
			</rt_info>
			<input>
				<port id="0" precision="FP16">
					<dim>1</dim>
					<dim>60</dim>
					<dim>1</dim>
					<dim>1</dim>
				</port>
			</input>
			<output>
				<port id="1" precision="FP32">
					<dim>1</dim>
					<dim>60</dim>
					<dim>1</dim>
					<dim>1</dim>
				</port>
			</output>
		</layer>
		<layer id="40" name="/model.1/branch2/branch2.3/Conv" type="Add" version="opset1">
			<data auto_broadcast="numpy" />
			<input>
				<port id="0" precision="FP32">
					<dim>1</dim>
					<dim>60</dim>
					<dim>40</dim>
					<dim>40</dim>
				</port>
				<port id="1" precision="FP32">
					<dim>1</dim>
					<dim>60</dim>
					<dim>1</dim>
					<dim>1</dim>
				</port>
			</input>
			<output>
				<port id="2" precision="FP32" names="/model.1/branch2/branch2.3/Conv_output_0">
					<dim>1</dim>
					<dim>60</dim>
					<dim>40</dim>
					<dim>40</dim>
				</port>
			</output>
		</layer>
		<layer id="41" name="/model.1/branch2/branch2.4/Relu" type="ReLU" version="opset1">
			<input>
				<port id="0" precision="FP32">
					<dim>1</dim>
					<dim>60</dim>
					<dim>40</dim>
					<dim>40</dim>
				</port>
			</input>
			<output>
				<port id="1" precision="FP32" names="/model.1/branch2/branch2.4/Relu_output_0">
					<dim>1</dim>
					<dim>60</dim>
					<dim>40</dim>
					<dim>40</dim>
				</port>
			</output>
		</layer>
		<layer id="42" name="/model.1/Concat" type="Concat" version="opset1">
			<data axis="1" />
			<input>
				<port id="0" precision="FP32">
					<dim>1</dim>
					<dim>60</dim>
					<dim>40</dim>
					<dim>40</dim>
				</port>
				<port id="1" precision="FP32">
					<dim>1</dim>
					<dim>60</dim>
					<dim>40</dim>
					<dim>40</dim>
				</port>
			</input>
			<output>
				<port id="2" precision="FP32" names="/model.1/Concat_output_0">
					<dim>1</dim>
					<dim>120</dim>
					<dim>40</dim>
					<dim>40</dim>
				</port>
			</output>
		</layer>
		<layer id="43" name="/model.1/Constant" type="Const" version="opset1">
			<data element_type="i64" shape="5" offset="18872" size="40" />
			<output>
				<port id="0" precision="I64" names="/model.1/Constant_output_0">
					<dim>5</dim>
				</port>
			</output>
		</layer>
		<layer id="44" name="/model.1/Reshape" type="Reshape" version="opset1">
			<data special_zero="true" />
			<input>
				<port id="0" precision="FP32">
					<dim>1</dim>
					<dim>120</dim>
					<dim>40</dim>
					<dim>40</dim>
				</port>
				<port id="1" precision="I64">
					<dim>5</dim>
				</port>
			</input>
			<output>
				<port id="2" precision="FP32" names="/model.1/Reshape_output_0">
					<dim>1</dim>
					<dim>2</dim>
					<dim>60</dim>
					<dim>40</dim>
					<dim>40</dim>
				</port>
			</output>
		</layer>
		<layer id="45" name="Constant_362" type="Const" version="opset1">
			<data element_type="i64" shape="5" offset="18912" size="40" />
			<output>
				<port id="0" precision="I64">
					<dim>5</dim>
				</port>
			</output>
		</layer>
		<layer id="46" name="/model.1/Transpose" type="Transpose" version="opset1">
			<input>
				<port id="0" precision="FP32">
					<dim>1</dim>
					<dim>2</dim>
					<dim>60</dim>
					<dim>40</dim>
					<dim>40</dim>
				</port>
				<port id="1" precision="I64">
					<dim>5</dim>
				</port>
			</input>
			<output>
				<port id="2" precision="FP32" names="/model.1/Transpose_output_0">
					<dim>1</dim>
					<dim>60</dim>
					<dim>2</dim>
					<dim>40</dim>
					<dim>40</dim>
				</port>
			</output>
		</layer>
		<layer id="47" name="/model.1/Constant_1" type="Const" version="opset1">
			<data element_type="i64" shape="4" offset="18952" size="32" />
			<output>
				<port id="0" precision="I64" names="/model.1/Constant_1_output_0">
					<dim>4</dim>
				</port>
			</output>
		</layer>
		<layer id="48" name="/model.1/Reshape_1" type="Reshape" version="opset1">
			<data special_zero="true" />
			<input>
				<port id="0" precision="FP32">
					<dim>1</dim>
					<dim>60</dim>
					<dim>2</dim>
					<dim>40</dim>
					<dim>40</dim>
				</port>
				<port id="1" precision="I64">
					<dim>4</dim>
				</port>
			</input>
			<output>
				<port id="2" precision="FP32" names="/model.1/Reshape_1_output_0">
					<dim>1</dim>
					<dim>120</dim>
					<dim>40</dim>
					<dim>40</dim>
				</port>
			</output>
		</layer>
		<layer id="49" name="Constant_11611" type="Const" version="opset1">
			<data element_type="i64" shape="2" offset="18984" size="16" />
			<output>
				<port id="0" precision="I64">
					<dim>2</dim>
				</port>
			</output>
		</layer>
		<layer id="50" name="Constant_11612" type="Const" version="opset1">
			<data element_type="i64" shape="2" offset="18984" size="16" />
			<output>
				<port id="0" precision="I64">
					<dim>2</dim>
				</port>
			</output>
		</layer>
		<layer id="51" name="Constant_11608" type="Const" version="opset1">
			<data element_type="i64" shape="1" offset="19000" size="8" />
			<output>
				<port id="0" precision="I64">
					<dim>1</dim>
				</port>
			</output>
		</layer>
		<layer id="52" name="/model.2/model.2.0/Shape" type="ShapeOf" version="opset3">
			<data output_type="i64" />
			<input>
				<port id="0" precision="FP32">
					<dim>1</dim>
					<dim>120</dim>
					<dim>40</dim>
					<dim>40</dim>
				</port>
			</input>
			<output>
				<port id="1" precision="I64" names="/model.2/model.2.0/Shape_output_0">
					<dim>4</dim>
				</port>
			</output>
		</layer>
		<layer id="53" name="/model.2/model.2.0/Constant" type="Const" version="opset1">
			<data element_type="i64" shape="1" offset="19000" size="8" />
			<output>
				<port id="0" precision="I64" names="/model.2/model.2.0/Constant_output_0">
					<dim>1</dim>
				</port>
			</output>
		</layer>
		<layer id="54" name="Constant_370" type="Const" version="opset1">
			<data element_type="i64" shape="" offset="19008" size="8" />
			<output>
				<port id="0" precision="I64" />
			</output>
		</layer>
		<layer id="55" name="/model.2/model.2.0/Gather" type="Gather" version="opset8">
			<data batch_dims="0" />
			<input>
				<port id="0" precision="I64">
					<dim>4</dim>
				</port>
				<port id="1" precision="I64">
					<dim>1</dim>
				</port>
				<port id="2" precision="I64" />
			</input>
			<output>
				<port id="3" precision="I64" names="/model.2/model.2.0/Gather_output_0">
					<dim>1</dim>
				</port>
			</output>
		</layer>
		<layer id="56" name="/model.2/model.2.0/Constant_2" type="Const" version="opset1">
			<data element_type="i64" shape="1" offset="19000" size="8" />
			<output>
				<port id="0" precision="I64" names="/model.2/model.2.0/Constant_2_output_0">
					<dim>1</dim>
				</port>
			</output>
		</layer>
		<layer id="57" name="/model.2/model.2.0/Add" type="Add" version="opset1">
			<data auto_broadcast="numpy" />
			<input>
				<port id="0" precision="I64">
					<dim>1</dim>
				</port>
				<port id="1" precision="I64">
					<dim>1</dim>
				</port>
			</input>
			<output>
				<port id="2" precision="I64" names="/model.2/model.2.0/Add_output_0">
					<dim>1</dim>
				</port>
			</output>
		</layer>
		<layer id="58" name="/model.2/model.2.0/Constant_3" type="Const" version="opset1">
			<data element_type="i64" shape="1" offset="19016" size="8" />
			<output>
				<port id="0" precision="I64" names="/model.2/model.2.0/Constant_3_output_0">
					<dim>1</dim>
				</port>
			</output>
		</layer>
		<layer id="59" name="/model.2/model.2.0/Div" type="Divide" version="opset1">
			<data auto_broadcast="numpy" m_pythondiv="true" />
			<input>
				<port id="0" precision="I64">
					<dim>1</dim>
				</port>
				<port id="1" precision="I64">
					<dim>1</dim>
				</port>
			</input>
			<output>
				<port id="2" precision="I64" names="/model.2/model.2.0/Div_output_0,/model.2/model.2.0/Mul_output_0">
					<dim>1</dim>
				</port>
			</output>
		</layer>
		<layer id="60" name="Constant_11607" type="Const" version="opset1">
			<data element_type="i32" shape="1" offset="19024" size="4" />
			<output>
				<port id="0" precision="I32">
					<dim>1</dim>
				</port>
			</output>
		</layer>
		<layer id="61" name="ScatterUpdate_11613" type="ScatterUpdate" version="opset3">
			<input>
				<port id="0" precision="I64">
					<dim>2</dim>
				</port>
				<port id="1" precision="I64">
					<dim>1</dim>
				</port>
				<port id="2" precision="I64">
					<dim>1</dim>
				</port>
				<port id="3" precision="I32">
					<dim>1</dim>
				</port>
			</input>
			<output>
				<port id="4" precision="I64">
					<dim>2</dim>
				</port>
			</output>
		</layer>
		<layer id="62" name="Constant_11616" type="Const" version="opset1">
			<data element_type="i64" shape="2" offset="19028" size="16" />
			<output>
				<port id="0" precision="I64">
					<dim>2</dim>
				</port>
			</output>
		</layer>
		<layer id="63" name="/model.2/model.2.0/Slice" type="StridedSlice" version="opset1">
			<data begin_mask="1, 0" end_mask="1, 0" new_axis_mask="" shrink_axis_mask="" ellipsis_mask="" />
			<input>
				<port id="0" precision="FP32">
					<dim>1</dim>
					<dim>120</dim>
					<dim>40</dim>
					<dim>40</dim>
				</port>
				<port id="1" precision="I64">
					<dim>2</dim>
				</port>
				<port id="2" precision="I64">
					<dim>2</dim>
				</port>
				<port id="3" precision="I64">
					<dim>2</dim>
				</port>
			</input>
			<output>
				<port id="4" precision="FP32" names="/model.2/model.2.0/Slice_output_0">
					<dim>1</dim>
					<dim>60</dim>
					<dim>40</dim>
					<dim>40</dim>
				</port>
			</output>
		</layer>
		<layer id="64" name="Constant_11660" type="Const" version="opset1">
			<data element_type="i64" shape="2" offset="18984" size="16" />
			<output>
				<port id="0" precision="I64">
					<dim>2</dim>
				</port>
			</output>
		</layer>
		<layer id="65" name="Constant_11659" type="Const" version="opset1">
			<data element_type="i64" shape="1" offset="19000" size="8" />
			<output>
				<port id="0" precision="I64">
					<dim>1</dim>
				</port>
			</output>
		</layer>
		<layer id="66" name="Constant_11658" type="Const" version="opset1">
			<data element_type="i32" shape="1" offset="19024" size="4" />
			<output>
				<port id="0" precision="I32">
					<dim>1</dim>
				</port>
			</output>
		</layer>
		<layer id="67" name="ScatterUpdate_11661" type="ScatterUpdate" version="opset3">
			<input>
				<port id="0" precision="I64">
					<dim>2</dim>
				</port>
				<port id="1" precision="I64">
					<dim>1</dim>
				</port>
				<port id="2" precision="I64">
					<dim>1</dim>
				</port>
				<port id="3" precision="I32">
					<dim>1</dim>
				</port>
			</input>
			<output>
				<port id="4" precision="I64">
					<dim>2</dim>
				</port>
			</output>
		</layer>
		<layer id="68" name="Constant_11662" type="Const" version="opset1">
			<data element_type="i64" shape="2" offset="18984" size="16" />
			<output>
				<port id="0" precision="I64">
					<dim>2</dim>
				</port>
			</output>
		</layer>
		<layer id="69" name="/model.2/model.2.0/Constant_5" type="Const" version="opset1">
			<data element_type="i64" shape="1" offset="19016" size="8" />
			<output>
				<port id="0" precision="I64" names="/model.2/model.2.0/Constant_5_output_0">
					<dim>1</dim>
				</port>
			</output>
		</layer>
		<layer id="70" name="/model.2/model.2.0/Mul_1" type="Multiply" version="opset1">
			<data auto_broadcast="numpy" />
			<input>
				<port id="0" precision="I64">
					<dim>1</dim>
				</port>
				<port id="1" precision="I64">
					<dim>1</dim>
				</port>
			</input>
			<output>
				<port id="2" precision="I64" names="/model.2/model.2.0/Mul_1_output_0">
					<dim>1</dim>
				</port>
			</output>
		</layer>
		<layer id="71" name="ScatterUpdate_11663" type="ScatterUpdate" version="opset3">
			<input>
				<port id="0" precision="I64">
					<dim>2</dim>
				</port>
				<port id="1" precision="I64">
					<dim>1</dim>
				</port>
				<port id="2" precision="I64">
					<dim>1</dim>
				</port>
				<port id="3" precision="I32">
					<dim>1</dim>
				</port>
			</input>
			<output>
				<port id="4" precision="I64">
					<dim>2</dim>
				</port>
			</output>
		</layer>
		<layer id="72" name="Constant_11666" type="Const" version="opset1">
			<data element_type="i64" shape="2" offset="19028" size="16" />
			<output>
				<port id="0" precision="I64">
					<dim>2</dim>
				</port>
			</output>
		</layer>
		<layer id="73" name="/model.2/model.2.0/Slice_1" type="StridedSlice" version="opset1">
			<data begin_mask="1, 0" end_mask="1, 0" new_axis_mask="" shrink_axis_mask="" ellipsis_mask="" />
			<input>
				<port id="0" precision="FP32">
					<dim>1</dim>
					<dim>120</dim>
					<dim>40</dim>
					<dim>40</dim>
				</port>
				<port id="1" precision="I64">
					<dim>2</dim>
				</port>
				<port id="2" precision="I64">
					<dim>2</dim>
				</port>
				<port id="3" precision="I64">
					<dim>2</dim>
				</port>
			</input>
			<output>
				<port id="4" precision="FP32" names="/model.2/model.2.0/Slice_1_output_0">
					<dim>1</dim>
					<dim>60</dim>
					<dim>40</dim>
					<dim>40</dim>
				</port>
			</output>
		</layer>
		<layer id="74" name="model.2.0.branch2.0.weight_compressed" type="Const" version="opset1">
			<data element_type="f16" shape="60, 60, 1, 1" offset="19044" size="7200" />
			<output>
				<port id="0" precision="FP16">
					<dim>60</dim>
					<dim>60</dim>
					<dim>1</dim>
					<dim>1</dim>
				</port>
			</output>
		</layer>
		<layer id="75" name="model.2.0.branch2.0.weight" type="Convert" version="opset1">
			<data destination_type="f32" />
			<rt_info>
				<attribute name="decompression" version="0" />
			</rt_info>
			<input>
				<port id="0" precision="FP16">
					<dim>60</dim>
					<dim>60</dim>
					<dim>1</dim>
					<dim>1</dim>
				</port>
			</input>
			<output>
				<port id="1" precision="FP32" names="model.2.0.branch2.0.weight">
					<dim>60</dim>
					<dim>60</dim>
					<dim>1</dim>
					<dim>1</dim>
				</port>
			</output>
		</layer>
		<layer id="76" name="/model.2/model.2.0/branch2/branch2.0/Conv/WithoutBiases" type="Convolution" version="opset1">
			<data strides="1, 1" dilations="1, 1" pads_begin="0, 0" pads_end="0, 0" auto_pad="explicit" />
			<input>
				<port id="0" precision="FP32">
					<dim>1</dim>
					<dim>60</dim>
					<dim>40</dim>
					<dim>40</dim>
				</port>
				<port id="1" precision="FP32">
					<dim>60</dim>
					<dim>60</dim>
					<dim>1</dim>
					<dim>1</dim>
				</port>
			</input>
			<output>
				<port id="2" precision="FP32">
					<dim>1</dim>
					<dim>60</dim>
					<dim>40</dim>
					<dim>40</dim>
				</port>
			</output>
		</layer>
		<layer id="77" name="Reshape_488_compressed" type="Const" version="opset1">
			<data element_type="f16" shape="1, 60, 1, 1" offset="26244" size="120" />
			<output>
				<port id="0" precision="FP16">
					<dim>1</dim>
					<dim>60</dim>
					<dim>1</dim>
					<dim>1</dim>
				</port>
			</output>
		</layer>
		<layer id="78" name="Reshape_488" type="Convert" version="opset1">
			<data destination_type="f32" />
			<rt_info>
				<attribute name="decompression" version="0" />
			</rt_info>
			<input>
				<port id="0" precision="FP16">
					<dim>1</dim>
					<dim>60</dim>
					<dim>1</dim>
					<dim>1</dim>
				</port>
			</input>
			<output>
				<port id="1" precision="FP32">
					<dim>1</dim>
					<dim>60</dim>
					<dim>1</dim>
					<dim>1</dim>
				</port>
			</output>
		</layer>
		<layer id="79" name="/model.2/model.2.0/branch2/branch2.0/Conv" type="Add" version="opset1">
			<data auto_broadcast="numpy" />
			<input>
				<port id="0" precision="FP32">
					<dim>1</dim>
					<dim>60</dim>
					<dim>40</dim>
					<dim>40</dim>
				</port>
				<port id="1" precision="FP32">
					<dim>1</dim>
					<dim>60</dim>
					<dim>1</dim>
					<dim>1</dim>
				</port>
			</input>
			<output>
				<port id="2" precision="FP32" names="/model.2/model.2.0/branch2/branch2.0/Conv_output_0">
					<dim>1</dim>
					<dim>60</dim>
					<dim>40</dim>
					<dim>40</dim>
				</port>
			</output>
		</layer>
		<layer id="80" name="/model.2/model.2.0/branch2/branch2.1/Relu" type="ReLU" version="opset1">
			<input>
				<port id="0" precision="FP32">
					<dim>1</dim>
					<dim>60</dim>
					<dim>40</dim>
					<dim>40</dim>
				</port>
			</input>
			<output>
				<port id="1" precision="FP32" names="/model.2/model.2.0/branch2/branch2.1/Relu_output_0">
					<dim>1</dim>
					<dim>60</dim>
					<dim>40</dim>
					<dim>40</dim>
				</port>
			</output>
		</layer>
		<layer id="81" name="Reshape_500_compressed" type="Const" version="opset1">
			<data element_type="f16" shape="60, 1, 1, 3, 3" offset="26364" size="1080" />
			<output>
				<port id="0" precision="FP16">
					<dim>60</dim>
					<dim>1</dim>
					<dim>1</dim>
					<dim>3</dim>
					<dim>3</dim>
				</port>
			</output>
		</layer>
		<layer id="82" name="Reshape_500" type="Convert" version="opset1">
			<data destination_type="f32" />
			<rt_info>
				<attribute name="decompression" version="0" />
			</rt_info>
			<input>
				<port id="0" precision="FP16">
					<dim>60</dim>
					<dim>1</dim>
					<dim>1</dim>
					<dim>3</dim>
					<dim>3</dim>
				</port>
			</input>
			<output>
				<port id="1" precision="FP32">
					<dim>60</dim>
					<dim>1</dim>
					<dim>1</dim>
					<dim>3</dim>
					<dim>3</dim>
				</port>
			</output>
		</layer>
		<layer id="83" name="/model.2/model.2.0/branch2/branch2.2/Conv/WithoutBiases" type="GroupConvolution" version="opset1">
			<data strides="1, 1" pads_begin="1, 1" pads_end="1, 1" dilations="1, 1" auto_pad="explicit" />
			<input>
				<port id="0" precision="FP32">
					<dim>1</dim>
					<dim>60</dim>
					<dim>40</dim>
					<dim>40</dim>
				</port>
				<port id="1" precision="FP32">
					<dim>60</dim>
					<dim>1</dim>
					<dim>1</dim>
					<dim>3</dim>
					<dim>3</dim>
				</port>
			</input>
			<output>
				<port id="2" precision="FP32">
					<dim>1</dim>
					<dim>60</dim>
					<dim>40</dim>
					<dim>40</dim>
				</port>
			</output>
		</layer>
		<layer id="84" name="Reshape_552_compressed" type="Const" version="opset1">
			<data element_type="f16" shape="1, 60, 1, 1" offset="27444" size="120" />
			<output>
				<port id="0" precision="FP16">
					<dim>1</dim>
					<dim>60</dim>
					<dim>1</dim>
					<dim>1</dim>
				</port>
			</output>
		</layer>
		<layer id="85" name="Reshape_552" type="Convert" version="opset1">
			<data destination_type="f32" />
			<rt_info>
				<attribute name="decompression" version="0" />
			</rt_info>
			<input>
				<port id="0" precision="FP16">
					<dim>1</dim>
					<dim>60</dim>
					<dim>1</dim>
					<dim>1</dim>
				</port>
			</input>
			<output>
				<port id="1" precision="FP32">
					<dim>1</dim>
					<dim>60</dim>
					<dim>1</dim>
					<dim>1</dim>
				</port>
			</output>
		</layer>
		<layer id="86" name="/model.2/model.2.0/branch2/branch2.2/Conv" type="Add" version="opset1">
			<data auto_broadcast="numpy" />
			<input>
				<port id="0" precision="FP32">
					<dim>1</dim>
					<dim>60</dim>
					<dim>40</dim>
					<dim>40</dim>
				</port>
				<port id="1" precision="FP32">
					<dim>1</dim>
					<dim>60</dim>
					<dim>1</dim>
					<dim>1</dim>
				</port>
			</input>
			<output>
				<port id="2" precision="FP32" names="/model.2/model.2.0/branch2/branch2.2/Conv_output_0">
					<dim>1</dim>
					<dim>60</dim>
					<dim>40</dim>
					<dim>40</dim>
				</port>
			</output>
		</layer>
		<layer id="87" name="model.2.0.branch2.3.weight_compressed" type="Const" version="opset1">
			<data element_type="f16" shape="60, 60, 1, 1" offset="27564" size="7200" />
			<output>
				<port id="0" precision="FP16">
					<dim>60</dim>
					<dim>60</dim>
					<dim>1</dim>
					<dim>1</dim>
				</port>
			</output>
		</layer>
		<layer id="88" name="model.2.0.branch2.3.weight" type="Convert" version="opset1">
			<data destination_type="f32" />
			<rt_info>
				<attribute name="decompression" version="0" />
			</rt_info>
			<input>
				<port id="0" precision="FP16">
					<dim>60</dim>
					<dim>60</dim>
					<dim>1</dim>
					<dim>1</dim>
				</port>
			</input>
			<output>
				<port id="1" precision="FP32" names="model.2.0.branch2.3.weight">
					<dim>60</dim>
					<dim>60</dim>
					<dim>1</dim>
					<dim>1</dim>
				</port>
			</output>
		</layer>
		<layer id="89" name="/model.2/model.2.0/branch2/branch2.3/Conv/WithoutBiases" type="Convolution" version="opset1">
			<data strides="1, 1" dilations="1, 1" pads_begin="0, 0" pads_end="0, 0" auto_pad="explicit" />
			<input>
				<port id="0" precision="FP32">
					<dim>1</dim>
					<dim>60</dim>
					<dim>40</dim>
					<dim>40</dim>
				</port>
				<port id="1" precision="FP32">
					<dim>60</dim>
					<dim>60</dim>
					<dim>1</dim>
					<dim>1</dim>
				</port>
			</input>
			<output>
				<port id="2" precision="FP32">
					<dim>1</dim>
					<dim>60</dim>
					<dim>40</dim>
					<dim>40</dim>
				</port>
			</output>
		</layer>
		<layer id="90" name="Reshape_567_compressed" type="Const" version="opset1">
			<data element_type="f16" shape="1, 60, 1, 1" offset="34764" size="120" />
			<output>
				<port id="0" precision="FP16">
					<dim>1</dim>
					<dim>60</dim>
					<dim>1</dim>
					<dim>1</dim>
				</port>
			</output>
		</layer>
		<layer id="91" name="Reshape_567" type="Convert" version="opset1">
			<data destination_type="f32" />
			<rt_info>
				<attribute name="decompression" version="0" />
			</rt_info>
			<input>
				<port id="0" precision="FP16">
					<dim>1</dim>
					<dim>60</dim>
					<dim>1</dim>
					<dim>1</dim>
				</port>
			</input>
			<output>
				<port id="1" precision="FP32">
					<dim>1</dim>
					<dim>60</dim>
					<dim>1</dim>
					<dim>1</dim>
				</port>
			</output>
		</layer>
		<layer id="92" name="/model.2/model.2.0/branch2/branch2.3/Conv" type="Add" version="opset1">
			<data auto_broadcast="numpy" />
			<input>
				<port id="0" precision="FP32">
					<dim>1</dim>
					<dim>60</dim>
					<dim>40</dim>
					<dim>40</dim>
				</port>
				<port id="1" precision="FP32">
					<dim>1</dim>
					<dim>60</dim>
					<dim>1</dim>
					<dim>1</dim>
				</port>
			</input>
			<output>
				<port id="2" precision="FP32" names="/model.2/model.2.0/branch2/branch2.3/Conv_output_0">
					<dim>1</dim>
					<dim>60</dim>
					<dim>40</dim>
					<dim>40</dim>
				</port>
			</output>
		</layer>
		<layer id="93" name="/model.2/model.2.0/branch2/branch2.4/Relu" type="ReLU" version="opset1">
			<input>
				<port id="0" precision="FP32">
					<dim>1</dim>
					<dim>60</dim>
					<dim>40</dim>
					<dim>40</dim>
				</port>
			</input>
			<output>
				<port id="1" precision="FP32" names="/model.2/model.2.0/branch2/branch2.4/Relu_output_0">
					<dim>1</dim>
					<dim>60</dim>
					<dim>40</dim>
					<dim>40</dim>
				</port>
			</output>
		</layer>
		<layer id="94" name="/model.2/model.2.0/Concat" type="Concat" version="opset1">
			<data axis="1" />
			<input>
				<port id="0" precision="FP32">
					<dim>1</dim>
					<dim>60</dim>
					<dim>40</dim>
					<dim>40</dim>
				</port>
				<port id="1" precision="FP32">
					<dim>1</dim>
					<dim>60</dim>
					<dim>40</dim>
					<dim>40</dim>
				</port>
			</input>
			<output>
				<port id="2" precision="FP32" names="/model.2/model.2.0/Concat_output_0">
					<dim>1</dim>
					<dim>120</dim>
					<dim>40</dim>
					<dim>40</dim>
				</port>
			</output>
		</layer>
		<layer id="95" name="/model.2/model.2.0/Constant_6" type="Const" version="opset1">
			<data element_type="i64" shape="5" offset="18872" size="40" />
			<output>
				<port id="0" precision="I64" names="/model.2/model.2.0/Constant_6_output_0">
					<dim>5</dim>
				</port>
			</output>
		</layer>
		<layer id="96" name="/model.2/model.2.0/Reshape" type="Reshape" version="opset1">
			<data special_zero="true" />
			<input>
				<port id="0" precision="FP32">
					<dim>1</dim>
					<dim>120</dim>
					<dim>40</dim>
					<dim>40</dim>
				</port>
				<port id="1" precision="I64">
					<dim>5</dim>
				</port>
			</input>
			<output>
				<port id="2" precision="FP32" names="/model.2/model.2.0/Reshape_output_0">
					<dim>1</dim>
					<dim>2</dim>
					<dim>60</dim>
					<dim>40</dim>
					<dim>40</dim>
				</port>
			</output>
		</layer>
		<layer id="97" name="Constant_577" type="Const" version="opset1">
			<data element_type="i64" shape="5" offset="18912" size="40" />
			<output>
				<port id="0" precision="I64">
					<dim>5</dim>
				</port>
			</output>
		</layer>
		<layer id="98" name="/model.2/model.2.0/Transpose" type="Transpose" version="opset1">
			<input>
				<port id="0" precision="FP32">
					<dim>1</dim>
					<dim>2</dim>
					<dim>60</dim>
					<dim>40</dim>
					<dim>40</dim>
				</port>
				<port id="1" precision="I64">
					<dim>5</dim>
				</port>
			</input>
			<output>
				<port id="2" precision="FP32" names="/model.2/model.2.0/Transpose_output_0">
					<dim>1</dim>
					<dim>60</dim>
					<dim>2</dim>
					<dim>40</dim>
					<dim>40</dim>
				</port>
			</output>
		</layer>
		<layer id="99" name="/model.2/model.2.0/Constant_7" type="Const" version="opset1">
			<data element_type="i64" shape="4" offset="18952" size="32" />
			<output>
				<port id="0" precision="I64" names="/model.2/model.2.0/Constant_7_output_0">
					<dim>4</dim>
				</port>
			</output>
		</layer>
		<layer id="100" name="/model.2/model.2.0/Reshape_1" type="Reshape" version="opset1">
			<data special_zero="true" />
			<input>
				<port id="0" precision="FP32">
					<dim>1</dim>
					<dim>60</dim>
					<dim>2</dim>
					<dim>40</dim>
					<dim>40</dim>
				</port>
				<port id="1" precision="I64">
					<dim>4</dim>
				</port>
			</input>
			<output>
				<port id="2" precision="FP32" names="/model.2/model.2.0/Reshape_1_output_0">
					<dim>1</dim>
					<dim>120</dim>
					<dim>40</dim>
					<dim>40</dim>
				</port>
			</output>
		</layer>
		<layer id="101" name="Constant_11752" type="Const" version="opset1">
			<data element_type="i64" shape="2" offset="18984" size="16" />
			<output>
				<port id="0" precision="I64">
					<dim>2</dim>
				</port>
			</output>
		</layer>
		<layer id="102" name="Constant_11753" type="Const" version="opset1">
			<data element_type="i64" shape="2" offset="18984" size="16" />
			<output>
				<port id="0" precision="I64">
					<dim>2</dim>
				</port>
			</output>
		</layer>
		<layer id="103" name="Constant_11749" type="Const" version="opset1">
			<data element_type="i64" shape="1" offset="19000" size="8" />
			<output>
				<port id="0" precision="I64">
					<dim>1</dim>
				</port>
			</output>
		</layer>
		<layer id="104" name="/model.2/model.2.1/Shape" type="ShapeOf" version="opset3">
			<data output_type="i64" />
			<input>
				<port id="0" precision="FP32">
					<dim>1</dim>
					<dim>120</dim>
					<dim>40</dim>
					<dim>40</dim>
				</port>
			</input>
			<output>
				<port id="1" precision="I64" names="/model.2/model.2.1/Shape_output_0">
					<dim>4</dim>
				</port>
			</output>
		</layer>
		<layer id="105" name="/model.2/model.2.1/Constant" type="Const" version="opset1">
			<data element_type="i64" shape="1" offset="19000" size="8" />
			<output>
				<port id="0" precision="I64" names="/model.2/model.2.1/Constant_output_0">
					<dim>1</dim>
				</port>
			</output>
		</layer>
		<layer id="106" name="Constant_585" type="Const" version="opset1">
			<data element_type="i64" shape="" offset="19008" size="8" />
			<output>
				<port id="0" precision="I64" />
			</output>
		</layer>
		<layer id="107" name="/model.2/model.2.1/Gather" type="Gather" version="opset8">
			<data batch_dims="0" />
			<input>
				<port id="0" precision="I64">
					<dim>4</dim>
				</port>
				<port id="1" precision="I64">
					<dim>1</dim>
				</port>
				<port id="2" precision="I64" />
			</input>
			<output>
				<port id="3" precision="I64" names="/model.2/model.2.1/Gather_output_0">
					<dim>1</dim>
				</port>
			</output>
		</layer>
		<layer id="108" name="/model.2/model.2.1/Constant_2" type="Const" version="opset1">
			<data element_type="i64" shape="1" offset="19000" size="8" />
			<output>
				<port id="0" precision="I64" names="/model.2/model.2.1/Constant_2_output_0">
					<dim>1</dim>
				</port>
			</output>
		</layer>
		<layer id="109" name="/model.2/model.2.1/Add" type="Add" version="opset1">
			<data auto_broadcast="numpy" />
			<input>
				<port id="0" precision="I64">
					<dim>1</dim>
				</port>
				<port id="1" precision="I64">
					<dim>1</dim>
				</port>
			</input>
			<output>
				<port id="2" precision="I64" names="/model.2/model.2.1/Add_output_0">
					<dim>1</dim>
				</port>
			</output>
		</layer>
		<layer id="110" name="/model.2/model.2.1/Constant_3" type="Const" version="opset1">
			<data element_type="i64" shape="1" offset="19016" size="8" />
			<output>
				<port id="0" precision="I64" names="/model.2/model.2.1/Constant_3_output_0">
					<dim>1</dim>
				</port>
			</output>
		</layer>
		<layer id="111" name="/model.2/model.2.1/Div" type="Divide" version="opset1">
			<data auto_broadcast="numpy" m_pythondiv="true" />
			<input>
				<port id="0" precision="I64">
					<dim>1</dim>
				</port>
				<port id="1" precision="I64">
					<dim>1</dim>
				</port>
			</input>
			<output>
				<port id="2" precision="I64" names="/model.2/model.2.1/Div_output_0,/model.2/model.2.1/Mul_output_0">
					<dim>1</dim>
				</port>
			</output>
		</layer>
		<layer id="112" name="Constant_11748" type="Const" version="opset1">
			<data element_type="i32" shape="1" offset="19024" size="4" />
			<output>
				<port id="0" precision="I32">
					<dim>1</dim>
				</port>
			</output>
		</layer>
		<layer id="113" name="ScatterUpdate_11754" type="ScatterUpdate" version="opset3">
			<input>
				<port id="0" precision="I64">
					<dim>2</dim>
				</port>
				<port id="1" precision="I64">
					<dim>1</dim>
				</port>
				<port id="2" precision="I64">
					<dim>1</dim>
				</port>
				<port id="3" precision="I32">
					<dim>1</dim>
				</port>
			</input>
			<output>
				<port id="4" precision="I64">
					<dim>2</dim>
				</port>
			</output>
		</layer>
		<layer id="114" name="Constant_11757" type="Const" version="opset1">
			<data element_type="i64" shape="2" offset="19028" size="16" />
			<output>
				<port id="0" precision="I64">
					<dim>2</dim>
				</port>
			</output>
		</layer>
		<layer id="115" name="/model.2/model.2.1/Slice" type="StridedSlice" version="opset1">
			<data begin_mask="1, 0" end_mask="1, 0" new_axis_mask="" shrink_axis_mask="" ellipsis_mask="" />
			<input>
				<port id="0" precision="FP32">
					<dim>1</dim>
					<dim>120</dim>
					<dim>40</dim>
					<dim>40</dim>
				</port>
				<port id="1" precision="I64">
					<dim>2</dim>
				</port>
				<port id="2" precision="I64">
					<dim>2</dim>
				</port>
				<port id="3" precision="I64">
					<dim>2</dim>
				</port>
			</input>
			<output>
				<port id="4" precision="FP32" names="/model.2/model.2.1/Slice_output_0">
					<dim>1</dim>
					<dim>60</dim>
					<dim>40</dim>
					<dim>40</dim>
				</port>
			</output>
		</layer>
		<layer id="116" name="Constant_11801" type="Const" version="opset1">
			<data element_type="i64" shape="2" offset="18984" size="16" />
			<output>
				<port id="0" precision="I64">
					<dim>2</dim>
				</port>
			</output>
		</layer>
		<layer id="117" name="Constant_11800" type="Const" version="opset1">
			<data element_type="i64" shape="1" offset="19000" size="8" />
			<output>
				<port id="0" precision="I64">
					<dim>1</dim>
				</port>
			</output>
		</layer>
		<layer id="118" name="Constant_11799" type="Const" version="opset1">
			<data element_type="i32" shape="1" offset="19024" size="4" />
			<output>
				<port id="0" precision="I32">
					<dim>1</dim>
				</port>
			</output>
		</layer>
		<layer id="119" name="ScatterUpdate_11802" type="ScatterUpdate" version="opset3">
			<input>
				<port id="0" precision="I64">
					<dim>2</dim>
				</port>
				<port id="1" precision="I64">
					<dim>1</dim>
				</port>
				<port id="2" precision="I64">
					<dim>1</dim>
				</port>
				<port id="3" precision="I32">
					<dim>1</dim>
				</port>
			</input>
			<output>
				<port id="4" precision="I64">
					<dim>2</dim>
				</port>
			</output>
		</layer>
		<layer id="120" name="Constant_11803" type="Const" version="opset1">
			<data element_type="i64" shape="2" offset="18984" size="16" />
			<output>
				<port id="0" precision="I64">
					<dim>2</dim>
				</port>
			</output>
		</layer>
		<layer id="121" name="/model.2/model.2.1/Constant_5" type="Const" version="opset1">
			<data element_type="i64" shape="1" offset="19016" size="8" />
			<output>
				<port id="0" precision="I64" names="/model.2/model.2.1/Constant_5_output_0">
					<dim>1</dim>
				</port>
			</output>
		</layer>
		<layer id="122" name="/model.2/model.2.1/Mul_1" type="Multiply" version="opset1">
			<data auto_broadcast="numpy" />
			<input>
				<port id="0" precision="I64">
					<dim>1</dim>
				</port>
				<port id="1" precision="I64">
					<dim>1</dim>
				</port>
			</input>
			<output>
				<port id="2" precision="I64" names="/model.2/model.2.1/Mul_1_output_0">
					<dim>1</dim>
				</port>
			</output>
		</layer>
		<layer id="123" name="ScatterUpdate_11804" type="ScatterUpdate" version="opset3">
			<input>
				<port id="0" precision="I64">
					<dim>2</dim>
				</port>
				<port id="1" precision="I64">
					<dim>1</dim>
				</port>
				<port id="2" precision="I64">
					<dim>1</dim>
				</port>
				<port id="3" precision="I32">
					<dim>1</dim>
				</port>
			</input>
			<output>
				<port id="4" precision="I64">
					<dim>2</dim>
				</port>
			</output>
		</layer>
		<layer id="124" name="Constant_11807" type="Const" version="opset1">
			<data element_type="i64" shape="2" offset="19028" size="16" />
			<output>
				<port id="0" precision="I64">
					<dim>2</dim>
				</port>
			</output>
		</layer>
		<layer id="125" name="/model.2/model.2.1/Slice_1" type="StridedSlice" version="opset1">
			<data begin_mask="1, 0" end_mask="1, 0" new_axis_mask="" shrink_axis_mask="" ellipsis_mask="" />
			<input>
				<port id="0" precision="FP32">
					<dim>1</dim>
					<dim>120</dim>
					<dim>40</dim>
					<dim>40</dim>
				</port>
				<port id="1" precision="I64">
					<dim>2</dim>
				</port>
				<port id="2" precision="I64">
					<dim>2</dim>
				</port>
				<port id="3" precision="I64">
					<dim>2</dim>
				</port>
			</input>
			<output>
				<port id="4" precision="FP32" names="/model.2/model.2.1/Slice_1_output_0">
					<dim>1</dim>
					<dim>60</dim>
					<dim>40</dim>
					<dim>40</dim>
				</port>
			</output>
		</layer>
		<layer id="126" name="model.2.1.branch2.0.weight_compressed" type="Const" version="opset1">
			<data element_type="f16" shape="60, 60, 1, 1" offset="34884" size="7200" />
			<output>
				<port id="0" precision="FP16">
					<dim>60</dim>
					<dim>60</dim>
					<dim>1</dim>
					<dim>1</dim>
				</port>
			</output>
		</layer>
		<layer id="127" name="model.2.1.branch2.0.weight" type="Convert" version="opset1">
			<data destination_type="f32" />
			<rt_info>
				<attribute name="decompression" version="0" />
			</rt_info>
			<input>
				<port id="0" precision="FP16">
					<dim>60</dim>
					<dim>60</dim>
					<dim>1</dim>
					<dim>1</dim>
				</port>
			</input>
			<output>
				<port id="1" precision="FP32" names="model.2.1.branch2.0.weight">
					<dim>60</dim>
					<dim>60</dim>
					<dim>1</dim>
					<dim>1</dim>
				</port>
			</output>
		</layer>
		<layer id="128" name="/model.2/model.2.1/branch2/branch2.0/Conv/WithoutBiases" type="Convolution" version="opset1">
			<data strides="1, 1" dilations="1, 1" pads_begin="0, 0" pads_end="0, 0" auto_pad="explicit" />
			<input>
				<port id="0" precision="FP32">
					<dim>1</dim>
					<dim>60</dim>
					<dim>40</dim>
					<dim>40</dim>
				</port>
				<port id="1" precision="FP32">
					<dim>60</dim>
					<dim>60</dim>
					<dim>1</dim>
					<dim>1</dim>
				</port>
			</input>
			<output>
				<port id="2" precision="FP32">
					<dim>1</dim>
					<dim>60</dim>
					<dim>40</dim>
					<dim>40</dim>
				</port>
			</output>
		</layer>
		<layer id="129" name="Reshape_703_compressed" type="Const" version="opset1">
			<data element_type="f16" shape="1, 60, 1, 1" offset="42084" size="120" />
			<output>
				<port id="0" precision="FP16">
					<dim>1</dim>
					<dim>60</dim>
					<dim>1</dim>
					<dim>1</dim>
				</port>
			</output>
		</layer>
		<layer id="130" name="Reshape_703" type="Convert" version="opset1">
			<data destination_type="f32" />
			<rt_info>
				<attribute name="decompression" version="0" />
			</rt_info>
			<input>
				<port id="0" precision="FP16">
					<dim>1</dim>
					<dim>60</dim>
					<dim>1</dim>
					<dim>1</dim>
				</port>
			</input>
			<output>
				<port id="1" precision="FP32">
					<dim>1</dim>
					<dim>60</dim>
					<dim>1</dim>
					<dim>1</dim>
				</port>
			</output>
		</layer>
		<layer id="131" name="/model.2/model.2.1/branch2/branch2.0/Conv" type="Add" version="opset1">
			<data auto_broadcast="numpy" />
			<input>
				<port id="0" precision="FP32">
					<dim>1</dim>
					<dim>60</dim>
					<dim>40</dim>
					<dim>40</dim>
				</port>
				<port id="1" precision="FP32">
					<dim>1</dim>
					<dim>60</dim>
					<dim>1</dim>
					<dim>1</dim>
				</port>
			</input>
			<output>
				<port id="2" precision="FP32" names="/model.2/model.2.1/branch2/branch2.0/Conv_output_0">
					<dim>1</dim>
					<dim>60</dim>
					<dim>40</dim>
					<dim>40</dim>
				</port>
			</output>
		</layer>
		<layer id="132" name="/model.2/model.2.1/branch2/branch2.1/Relu" type="ReLU" version="opset1">
			<input>
				<port id="0" precision="FP32">
					<dim>1</dim>
					<dim>60</dim>
					<dim>40</dim>
					<dim>40</dim>
				</port>
			</input>
			<output>
				<port id="1" precision="FP32" names="/model.2/model.2.1/branch2/branch2.1/Relu_output_0">
					<dim>1</dim>
					<dim>60</dim>
					<dim>40</dim>
					<dim>40</dim>
				</port>
			</output>
		</layer>
		<layer id="133" name="Reshape_715_compressed" type="Const" version="opset1">
			<data element_type="f16" shape="60, 1, 1, 3, 3" offset="42204" size="1080" />
			<output>
				<port id="0" precision="FP16">
					<dim>60</dim>
					<dim>1</dim>
					<dim>1</dim>
					<dim>3</dim>
					<dim>3</dim>
				</port>
			</output>
		</layer>
		<layer id="134" name="Reshape_715" type="Convert" version="opset1">
			<data destination_type="f32" />
			<rt_info>
				<attribute name="decompression" version="0" />
			</rt_info>
			<input>
				<port id="0" precision="FP16">
					<dim>60</dim>
					<dim>1</dim>
					<dim>1</dim>
					<dim>3</dim>
					<dim>3</dim>
				</port>
			</input>
			<output>
				<port id="1" precision="FP32">
					<dim>60</dim>
					<dim>1</dim>
					<dim>1</dim>
					<dim>3</dim>
					<dim>3</dim>
				</port>
			</output>
		</layer>
		<layer id="135" name="/model.2/model.2.1/branch2/branch2.2/Conv/WithoutBiases" type="GroupConvolution" version="opset1">
			<data strides="1, 1" pads_begin="1, 1" pads_end="1, 1" dilations="1, 1" auto_pad="explicit" />
			<input>
				<port id="0" precision="FP32">
					<dim>1</dim>
					<dim>60</dim>
					<dim>40</dim>
					<dim>40</dim>
				</port>
				<port id="1" precision="FP32">
					<dim>60</dim>
					<dim>1</dim>
					<dim>1</dim>
					<dim>3</dim>
					<dim>3</dim>
				</port>
			</input>
			<output>
				<port id="2" precision="FP32">
					<dim>1</dim>
					<dim>60</dim>
					<dim>40</dim>
					<dim>40</dim>
				</port>
			</output>
		</layer>
		<layer id="136" name="Reshape_767_compressed" type="Const" version="opset1">
			<data element_type="f16" shape="1, 60, 1, 1" offset="43284" size="120" />
			<output>
				<port id="0" precision="FP16">
					<dim>1</dim>
					<dim>60</dim>
					<dim>1</dim>
					<dim>1</dim>
				</port>
			</output>
		</layer>
		<layer id="137" name="Reshape_767" type="Convert" version="opset1">
			<data destination_type="f32" />
			<rt_info>
				<attribute name="decompression" version="0" />
			</rt_info>
			<input>
				<port id="0" precision="FP16">
					<dim>1</dim>
					<dim>60</dim>
					<dim>1</dim>
					<dim>1</dim>
				</port>
			</input>
			<output>
				<port id="1" precision="FP32">
					<dim>1</dim>
					<dim>60</dim>
					<dim>1</dim>
					<dim>1</dim>
				</port>
			</output>
		</layer>
		<layer id="138" name="/model.2/model.2.1/branch2/branch2.2/Conv" type="Add" version="opset1">
			<data auto_broadcast="numpy" />
			<input>
				<port id="0" precision="FP32">
					<dim>1</dim>
					<dim>60</dim>
					<dim>40</dim>
					<dim>40</dim>
				</port>
				<port id="1" precision="FP32">
					<dim>1</dim>
					<dim>60</dim>
					<dim>1</dim>
					<dim>1</dim>
				</port>
			</input>
			<output>
				<port id="2" precision="FP32" names="/model.2/model.2.1/branch2/branch2.2/Conv_output_0">
					<dim>1</dim>
					<dim>60</dim>
					<dim>40</dim>
					<dim>40</dim>
				</port>
			</output>
		</layer>
		<layer id="139" name="model.2.1.branch2.3.weight_compressed" type="Const" version="opset1">
			<data element_type="f16" shape="60, 60, 1, 1" offset="43404" size="7200" />
			<output>
				<port id="0" precision="FP16">
					<dim>60</dim>
					<dim>60</dim>
					<dim>1</dim>
					<dim>1</dim>
				</port>
			</output>
		</layer>
		<layer id="140" name="model.2.1.branch2.3.weight" type="Convert" version="opset1">
			<data destination_type="f32" />
			<rt_info>
				<attribute name="decompression" version="0" />
			</rt_info>
			<input>
				<port id="0" precision="FP16">
					<dim>60</dim>
					<dim>60</dim>
					<dim>1</dim>
					<dim>1</dim>
				</port>
			</input>
			<output>
				<port id="1" precision="FP32" names="model.2.1.branch2.3.weight">
					<dim>60</dim>
					<dim>60</dim>
					<dim>1</dim>
					<dim>1</dim>
				</port>
			</output>
		</layer>
		<layer id="141" name="/model.2/model.2.1/branch2/branch2.3/Conv/WithoutBiases" type="Convolution" version="opset1">
			<data strides="1, 1" dilations="1, 1" pads_begin="0, 0" pads_end="0, 0" auto_pad="explicit" />
			<input>
				<port id="0" precision="FP32">
					<dim>1</dim>
					<dim>60</dim>
					<dim>40</dim>
					<dim>40</dim>
				</port>
				<port id="1" precision="FP32">
					<dim>60</dim>
					<dim>60</dim>
					<dim>1</dim>
					<dim>1</dim>
				</port>
			</input>
			<output>
				<port id="2" precision="FP32">
					<dim>1</dim>
					<dim>60</dim>
					<dim>40</dim>
					<dim>40</dim>
				</port>
			</output>
		</layer>
		<layer id="142" name="Reshape_782_compressed" type="Const" version="opset1">
			<data element_type="f16" shape="1, 60, 1, 1" offset="50604" size="120" />
			<output>
				<port id="0" precision="FP16">
					<dim>1</dim>
					<dim>60</dim>
					<dim>1</dim>
					<dim>1</dim>
				</port>
			</output>
		</layer>
		<layer id="143" name="Reshape_782" type="Convert" version="opset1">
			<data destination_type="f32" />
			<rt_info>
				<attribute name="decompression" version="0" />
			</rt_info>
			<input>
				<port id="0" precision="FP16">
					<dim>1</dim>
					<dim>60</dim>
					<dim>1</dim>
					<dim>1</dim>
				</port>
			</input>
			<output>
				<port id="1" precision="FP32">
					<dim>1</dim>
					<dim>60</dim>
					<dim>1</dim>
					<dim>1</dim>
				</port>
			</output>
		</layer>
		<layer id="144" name="/model.2/model.2.1/branch2/branch2.3/Conv" type="Add" version="opset1">
			<data auto_broadcast="numpy" />
			<input>
				<port id="0" precision="FP32">
					<dim>1</dim>
					<dim>60</dim>
					<dim>40</dim>
					<dim>40</dim>
				</port>
				<port id="1" precision="FP32">
					<dim>1</dim>
					<dim>60</dim>
					<dim>1</dim>
					<dim>1</dim>
				</port>
			</input>
			<output>
				<port id="2" precision="FP32" names="/model.2/model.2.1/branch2/branch2.3/Conv_output_0">
					<dim>1</dim>
					<dim>60</dim>
					<dim>40</dim>
					<dim>40</dim>
				</port>
			</output>
		</layer>
		<layer id="145" name="/model.2/model.2.1/branch2/branch2.4/Relu" type="ReLU" version="opset1">
			<input>
				<port id="0" precision="FP32">
					<dim>1</dim>
					<dim>60</dim>
					<dim>40</dim>
					<dim>40</dim>
				</port>
			</input>
			<output>
				<port id="1" precision="FP32" names="/model.2/model.2.1/branch2/branch2.4/Relu_output_0">
					<dim>1</dim>
					<dim>60</dim>
					<dim>40</dim>
					<dim>40</dim>
				</port>
			</output>
		</layer>
		<layer id="146" name="/model.2/model.2.1/Concat" type="Concat" version="opset1">
			<data axis="1" />
			<input>
				<port id="0" precision="FP32">
					<dim>1</dim>
					<dim>60</dim>
					<dim>40</dim>
					<dim>40</dim>
				</port>
				<port id="1" precision="FP32">
					<dim>1</dim>
					<dim>60</dim>
					<dim>40</dim>
					<dim>40</dim>
				</port>
			</input>
			<output>
				<port id="2" precision="FP32" names="/model.2/model.2.1/Concat_output_0">
					<dim>1</dim>
					<dim>120</dim>
					<dim>40</dim>
					<dim>40</dim>
				</port>
			</output>
		</layer>
		<layer id="147" name="/model.2/model.2.1/Constant_6" type="Const" version="opset1">
			<data element_type="i64" shape="5" offset="18872" size="40" />
			<output>
				<port id="0" precision="I64" names="/model.2/model.2.1/Constant_6_output_0">
					<dim>5</dim>
				</port>
			</output>
		</layer>
		<layer id="148" name="/model.2/model.2.1/Reshape" type="Reshape" version="opset1">
			<data special_zero="true" />
			<input>
				<port id="0" precision="FP32">
					<dim>1</dim>
					<dim>120</dim>
					<dim>40</dim>
					<dim>40</dim>
				</port>
				<port id="1" precision="I64">
					<dim>5</dim>
				</port>
			</input>
			<output>
				<port id="2" precision="FP32" names="/model.2/model.2.1/Reshape_output_0">
					<dim>1</dim>
					<dim>2</dim>
					<dim>60</dim>
					<dim>40</dim>
					<dim>40</dim>
				</port>
			</output>
		</layer>
		<layer id="149" name="Constant_792" type="Const" version="opset1">
			<data element_type="i64" shape="5" offset="18912" size="40" />
			<output>
				<port id="0" precision="I64">
					<dim>5</dim>
				</port>
			</output>
		</layer>
		<layer id="150" name="/model.2/model.2.1/Transpose" type="Transpose" version="opset1">
			<input>
				<port id="0" precision="FP32">
					<dim>1</dim>
					<dim>2</dim>
					<dim>60</dim>
					<dim>40</dim>
					<dim>40</dim>
				</port>
				<port id="1" precision="I64">
					<dim>5</dim>
				</port>
			</input>
			<output>
				<port id="2" precision="FP32" names="/model.2/model.2.1/Transpose_output_0">
					<dim>1</dim>
					<dim>60</dim>
					<dim>2</dim>
					<dim>40</dim>
					<dim>40</dim>
				</port>
			</output>
		</layer>
		<layer id="151" name="/model.2/model.2.1/Constant_7" type="Const" version="opset1">
			<data element_type="i64" shape="4" offset="18952" size="32" />
			<output>
				<port id="0" precision="I64" names="/model.2/model.2.1/Constant_7_output_0">
					<dim>4</dim>
				</port>
			</output>
		</layer>
		<layer id="152" name="/model.2/model.2.1/Reshape_1" type="Reshape" version="opset1">
			<data special_zero="true" />
			<input>
				<port id="0" precision="FP32">
					<dim>1</dim>
					<dim>60</dim>
					<dim>2</dim>
					<dim>40</dim>
					<dim>40</dim>
				</port>
				<port id="1" precision="I64">
					<dim>4</dim>
				</port>
			</input>
			<output>
				<port id="2" precision="FP32" names="/model.2/model.2.1/Reshape_1_output_0">
					<dim>1</dim>
					<dim>120</dim>
					<dim>40</dim>
					<dim>40</dim>
				</port>
			</output>
		</layer>
		<layer id="153" name="Constant_11893" type="Const" version="opset1">
			<data element_type="i64" shape="2" offset="18984" size="16" />
			<output>
				<port id="0" precision="I64">
					<dim>2</dim>
				</port>
			</output>
		</layer>
		<layer id="154" name="Constant_11894" type="Const" version="opset1">
			<data element_type="i64" shape="2" offset="18984" size="16" />
			<output>
				<port id="0" precision="I64">
					<dim>2</dim>
				</port>
			</output>
		</layer>
		<layer id="155" name="Constant_11890" type="Const" version="opset1">
			<data element_type="i64" shape="1" offset="19000" size="8" />
			<output>
				<port id="0" precision="I64">
					<dim>1</dim>
				</port>
			</output>
		</layer>
		<layer id="156" name="/model.2/model.2.2/Shape" type="ShapeOf" version="opset3">
			<data output_type="i64" />
			<input>
				<port id="0" precision="FP32">
					<dim>1</dim>
					<dim>120</dim>
					<dim>40</dim>
					<dim>40</dim>
				</port>
			</input>
			<output>
				<port id="1" precision="I64" names="/model.2/model.2.2/Shape_output_0">
					<dim>4</dim>
				</port>
			</output>
		</layer>
		<layer id="157" name="/model.2/model.2.2/Constant" type="Const" version="opset1">
			<data element_type="i64" shape="1" offset="19000" size="8" />
			<output>
				<port id="0" precision="I64" names="/model.2/model.2.2/Constant_output_0">
					<dim>1</dim>
				</port>
			</output>
		</layer>
		<layer id="158" name="Constant_800" type="Const" version="opset1">
			<data element_type="i64" shape="" offset="19008" size="8" />
			<output>
				<port id="0" precision="I64" />
			</output>
		</layer>
		<layer id="159" name="/model.2/model.2.2/Gather" type="Gather" version="opset8">
			<data batch_dims="0" />
			<input>
				<port id="0" precision="I64">
					<dim>4</dim>
				</port>
				<port id="1" precision="I64">
					<dim>1</dim>
				</port>
				<port id="2" precision="I64" />
			</input>
			<output>
				<port id="3" precision="I64" names="/model.2/model.2.2/Gather_output_0">
					<dim>1</dim>
				</port>
			</output>
		</layer>
		<layer id="160" name="/model.2/model.2.2/Constant_2" type="Const" version="opset1">
			<data element_type="i64" shape="1" offset="19000" size="8" />
			<output>
				<port id="0" precision="I64" names="/model.2/model.2.2/Constant_2_output_0">
					<dim>1</dim>
				</port>
			</output>
		</layer>
		<layer id="161" name="/model.2/model.2.2/Add" type="Add" version="opset1">
			<data auto_broadcast="numpy" />
			<input>
				<port id="0" precision="I64">
					<dim>1</dim>
				</port>
				<port id="1" precision="I64">
					<dim>1</dim>
				</port>
			</input>
			<output>
				<port id="2" precision="I64" names="/model.2/model.2.2/Add_output_0">
					<dim>1</dim>
				</port>
			</output>
		</layer>
		<layer id="162" name="/model.2/model.2.2/Constant_3" type="Const" version="opset1">
			<data element_type="i64" shape="1" offset="19016" size="8" />
			<output>
				<port id="0" precision="I64" names="/model.2/model.2.2/Constant_3_output_0">
					<dim>1</dim>
				</port>
			</output>
		</layer>
		<layer id="163" name="/model.2/model.2.2/Div" type="Divide" version="opset1">
			<data auto_broadcast="numpy" m_pythondiv="true" />
			<input>
				<port id="0" precision="I64">
					<dim>1</dim>
				</port>
				<port id="1" precision="I64">
					<dim>1</dim>
				</port>
			</input>
			<output>
				<port id="2" precision="I64" names="/model.2/model.2.2/Div_output_0,/model.2/model.2.2/Mul_output_0">
					<dim>1</dim>
				</port>
			</output>
		</layer>
		<layer id="164" name="Constant_11889" type="Const" version="opset1">
			<data element_type="i32" shape="1" offset="19024" size="4" />
			<output>
				<port id="0" precision="I32">
					<dim>1</dim>
				</port>
			</output>
		</layer>
		<layer id="165" name="ScatterUpdate_11895" type="ScatterUpdate" version="opset3">
			<input>
				<port id="0" precision="I64">
					<dim>2</dim>
				</port>
				<port id="1" precision="I64">
					<dim>1</dim>
				</port>
				<port id="2" precision="I64">
					<dim>1</dim>
				</port>
				<port id="3" precision="I32">
					<dim>1</dim>
				</port>
			</input>
			<output>
				<port id="4" precision="I64">
					<dim>2</dim>
				</port>
			</output>
		</layer>
		<layer id="166" name="Constant_11898" type="Const" version="opset1">
			<data element_type="i64" shape="2" offset="19028" size="16" />
			<output>
				<port id="0" precision="I64">
					<dim>2</dim>
				</port>
			</output>
		</layer>
		<layer id="167" name="/model.2/model.2.2/Slice" type="StridedSlice" version="opset1">
			<data begin_mask="1, 0" end_mask="1, 0" new_axis_mask="" shrink_axis_mask="" ellipsis_mask="" />
			<input>
				<port id="0" precision="FP32">
					<dim>1</dim>
					<dim>120</dim>
					<dim>40</dim>
					<dim>40</dim>
				</port>
				<port id="1" precision="I64">
					<dim>2</dim>
				</port>
				<port id="2" precision="I64">
					<dim>2</dim>
				</port>
				<port id="3" precision="I64">
					<dim>2</dim>
				</port>
			</input>
			<output>
				<port id="4" precision="FP32" names="/model.2/model.2.2/Slice_output_0">
					<dim>1</dim>
					<dim>60</dim>
					<dim>40</dim>
					<dim>40</dim>
				</port>
			</output>
		</layer>
		<layer id="168" name="Constant_11942" type="Const" version="opset1">
			<data element_type="i64" shape="2" offset="18984" size="16" />
			<output>
				<port id="0" precision="I64">
					<dim>2</dim>
				</port>
			</output>
		</layer>
		<layer id="169" name="Constant_11941" type="Const" version="opset1">
			<data element_type="i64" shape="1" offset="19000" size="8" />
			<output>
				<port id="0" precision="I64">
					<dim>1</dim>
				</port>
			</output>
		</layer>
		<layer id="170" name="Constant_11940" type="Const" version="opset1">
			<data element_type="i32" shape="1" offset="19024" size="4" />
			<output>
				<port id="0" precision="I32">
					<dim>1</dim>
				</port>
			</output>
		</layer>
		<layer id="171" name="ScatterUpdate_11943" type="ScatterUpdate" version="opset3">
			<input>
				<port id="0" precision="I64">
					<dim>2</dim>
				</port>
				<port id="1" precision="I64">
					<dim>1</dim>
				</port>
				<port id="2" precision="I64">
					<dim>1</dim>
				</port>
				<port id="3" precision="I32">
					<dim>1</dim>
				</port>
			</input>
			<output>
				<port id="4" precision="I64">
					<dim>2</dim>
				</port>
			</output>
		</layer>
		<layer id="172" name="Constant_11944" type="Const" version="opset1">
			<data element_type="i64" shape="2" offset="18984" size="16" />
			<output>
				<port id="0" precision="I64">
					<dim>2</dim>
				</port>
			</output>
		</layer>
		<layer id="173" name="/model.2/model.2.2/Constant_5" type="Const" version="opset1">
			<data element_type="i64" shape="1" offset="19016" size="8" />
			<output>
				<port id="0" precision="I64" names="/model.2/model.2.2/Constant_5_output_0">
					<dim>1</dim>
				</port>
			</output>
		</layer>
		<layer id="174" name="/model.2/model.2.2/Mul_1" type="Multiply" version="opset1">
			<data auto_broadcast="numpy" />
			<input>
				<port id="0" precision="I64">
					<dim>1</dim>
				</port>
				<port id="1" precision="I64">
					<dim>1</dim>
				</port>
			</input>
			<output>
				<port id="2" precision="I64" names="/model.2/model.2.2/Mul_1_output_0">
					<dim>1</dim>
				</port>
			</output>
		</layer>
		<layer id="175" name="ScatterUpdate_11945" type="ScatterUpdate" version="opset3">
			<input>
				<port id="0" precision="I64">
					<dim>2</dim>
				</port>
				<port id="1" precision="I64">
					<dim>1</dim>
				</port>
				<port id="2" precision="I64">
					<dim>1</dim>
				</port>
				<port id="3" precision="I32">
					<dim>1</dim>
				</port>
			</input>
			<output>
				<port id="4" precision="I64">
					<dim>2</dim>
				</port>
			</output>
		</layer>
		<layer id="176" name="Constant_11948" type="Const" version="opset1">
			<data element_type="i64" shape="2" offset="19028" size="16" />
			<output>
				<port id="0" precision="I64">
					<dim>2</dim>
				</port>
			</output>
		</layer>
		<layer id="177" name="/model.2/model.2.2/Slice_1" type="StridedSlice" version="opset1">
			<data begin_mask="1, 0" end_mask="1, 0" new_axis_mask="" shrink_axis_mask="" ellipsis_mask="" />
			<input>
				<port id="0" precision="FP32">
					<dim>1</dim>
					<dim>120</dim>
					<dim>40</dim>
					<dim>40</dim>
				</port>
				<port id="1" precision="I64">
					<dim>2</dim>
				</port>
				<port id="2" precision="I64">
					<dim>2</dim>
				</port>
				<port id="3" precision="I64">
					<dim>2</dim>
				</port>
			</input>
			<output>
				<port id="4" precision="FP32" names="/model.2/model.2.2/Slice_1_output_0">
					<dim>1</dim>
					<dim>60</dim>
					<dim>40</dim>
					<dim>40</dim>
				</port>
			</output>
		</layer>
		<layer id="178" name="model.2.2.branch2.0.weight_compressed" type="Const" version="opset1">
			<data element_type="f16" shape="60, 60, 1, 1" offset="50724" size="7200" />
			<output>
				<port id="0" precision="FP16">
					<dim>60</dim>
					<dim>60</dim>
					<dim>1</dim>
					<dim>1</dim>
				</port>
			</output>
		</layer>
		<layer id="179" name="model.2.2.branch2.0.weight" type="Convert" version="opset1">
			<data destination_type="f32" />
			<rt_info>
				<attribute name="decompression" version="0" />
			</rt_info>
			<input>
				<port id="0" precision="FP16">
					<dim>60</dim>
					<dim>60</dim>
					<dim>1</dim>
					<dim>1</dim>
				</port>
			</input>
			<output>
				<port id="1" precision="FP32" names="model.2.2.branch2.0.weight">
					<dim>60</dim>
					<dim>60</dim>
					<dim>1</dim>
					<dim>1</dim>
				</port>
			</output>
		</layer>
		<layer id="180" name="/model.2/model.2.2/branch2/branch2.0/Conv/WithoutBiases" type="Convolution" version="opset1">
			<data strides="1, 1" dilations="1, 1" pads_begin="0, 0" pads_end="0, 0" auto_pad="explicit" />
			<input>
				<port id="0" precision="FP32">
					<dim>1</dim>
					<dim>60</dim>
					<dim>40</dim>
					<dim>40</dim>
				</port>
				<port id="1" precision="FP32">
					<dim>60</dim>
					<dim>60</dim>
					<dim>1</dim>
					<dim>1</dim>
				</port>
			</input>
			<output>
				<port id="2" precision="FP32">
					<dim>1</dim>
					<dim>60</dim>
					<dim>40</dim>
					<dim>40</dim>
				</port>
			</output>
		</layer>
		<layer id="181" name="Reshape_918_compressed" type="Const" version="opset1">
			<data element_type="f16" shape="1, 60, 1, 1" offset="57924" size="120" />
			<output>
				<port id="0" precision="FP16">
					<dim>1</dim>
					<dim>60</dim>
					<dim>1</dim>
					<dim>1</dim>
				</port>
			</output>
		</layer>
		<layer id="182" name="Reshape_918" type="Convert" version="opset1">
			<data destination_type="f32" />
			<rt_info>
				<attribute name="decompression" version="0" />
			</rt_info>
			<input>
				<port id="0" precision="FP16">
					<dim>1</dim>
					<dim>60</dim>
					<dim>1</dim>
					<dim>1</dim>
				</port>
			</input>
			<output>
				<port id="1" precision="FP32">
					<dim>1</dim>
					<dim>60</dim>
					<dim>1</dim>
					<dim>1</dim>
				</port>
			</output>
		</layer>
		<layer id="183" name="/model.2/model.2.2/branch2/branch2.0/Conv" type="Add" version="opset1">
			<data auto_broadcast="numpy" />
			<input>
				<port id="0" precision="FP32">
					<dim>1</dim>
					<dim>60</dim>
					<dim>40</dim>
					<dim>40</dim>
				</port>
				<port id="1" precision="FP32">
					<dim>1</dim>
					<dim>60</dim>
					<dim>1</dim>
					<dim>1</dim>
				</port>
			</input>
			<output>
				<port id="2" precision="FP32" names="/model.2/model.2.2/branch2/branch2.0/Conv_output_0">
					<dim>1</dim>
					<dim>60</dim>
					<dim>40</dim>
					<dim>40</dim>
				</port>
			</output>
		</layer>
		<layer id="184" name="/model.2/model.2.2/branch2/branch2.1/Relu" type="ReLU" version="opset1">
			<input>
				<port id="0" precision="FP32">
					<dim>1</dim>
					<dim>60</dim>
					<dim>40</dim>
					<dim>40</dim>
				</port>
			</input>
			<output>
				<port id="1" precision="FP32" names="/model.2/model.2.2/branch2/branch2.1/Relu_output_0">
					<dim>1</dim>
					<dim>60</dim>
					<dim>40</dim>
					<dim>40</dim>
				</port>
			</output>
		</layer>
		<layer id="185" name="Reshape_930_compressed" type="Const" version="opset1">
			<data element_type="f16" shape="60, 1, 1, 3, 3" offset="58044" size="1080" />
			<output>
				<port id="0" precision="FP16">
					<dim>60</dim>
					<dim>1</dim>
					<dim>1</dim>
					<dim>3</dim>
					<dim>3</dim>
				</port>
			</output>
		</layer>
		<layer id="186" name="Reshape_930" type="Convert" version="opset1">
			<data destination_type="f32" />
			<rt_info>
				<attribute name="decompression" version="0" />
			</rt_info>
			<input>
				<port id="0" precision="FP16">
					<dim>60</dim>
					<dim>1</dim>
					<dim>1</dim>
					<dim>3</dim>
					<dim>3</dim>
				</port>
			</input>
			<output>
				<port id="1" precision="FP32">
					<dim>60</dim>
					<dim>1</dim>
					<dim>1</dim>
					<dim>3</dim>
					<dim>3</dim>
				</port>
			</output>
		</layer>
		<layer id="187" name="/model.2/model.2.2/branch2/branch2.2/Conv/WithoutBiases" type="GroupConvolution" version="opset1">
			<data strides="1, 1" pads_begin="1, 1" pads_end="1, 1" dilations="1, 1" auto_pad="explicit" />
			<input>
				<port id="0" precision="FP32">
					<dim>1</dim>
					<dim>60</dim>
					<dim>40</dim>
					<dim>40</dim>
				</port>
				<port id="1" precision="FP32">
					<dim>60</dim>
					<dim>1</dim>
					<dim>1</dim>
					<dim>3</dim>
					<dim>3</dim>
				</port>
			</input>
			<output>
				<port id="2" precision="FP32">
					<dim>1</dim>
					<dim>60</dim>
					<dim>40</dim>
					<dim>40</dim>
				</port>
			</output>
		</layer>
		<layer id="188" name="Reshape_982_compressed" type="Const" version="opset1">
			<data element_type="f16" shape="1, 60, 1, 1" offset="59124" size="120" />
			<output>
				<port id="0" precision="FP16">
					<dim>1</dim>
					<dim>60</dim>
					<dim>1</dim>
					<dim>1</dim>
				</port>
			</output>
		</layer>
		<layer id="189" name="Reshape_982" type="Convert" version="opset1">
			<data destination_type="f32" />
			<rt_info>
				<attribute name="decompression" version="0" />
			</rt_info>
			<input>
				<port id="0" precision="FP16">
					<dim>1</dim>
					<dim>60</dim>
					<dim>1</dim>
					<dim>1</dim>
				</port>
			</input>
			<output>
				<port id="1" precision="FP32">
					<dim>1</dim>
					<dim>60</dim>
					<dim>1</dim>
					<dim>1</dim>
				</port>
			</output>
		</layer>
		<layer id="190" name="/model.2/model.2.2/branch2/branch2.2/Conv" type="Add" version="opset1">
			<data auto_broadcast="numpy" />
			<input>
				<port id="0" precision="FP32">
					<dim>1</dim>
					<dim>60</dim>
					<dim>40</dim>
					<dim>40</dim>
				</port>
				<port id="1" precision="FP32">
					<dim>1</dim>
					<dim>60</dim>
					<dim>1</dim>
					<dim>1</dim>
				</port>
			</input>
			<output>
				<port id="2" precision="FP32" names="/model.2/model.2.2/branch2/branch2.2/Conv_output_0">
					<dim>1</dim>
					<dim>60</dim>
					<dim>40</dim>
					<dim>40</dim>
				</port>
			</output>
		</layer>
		<layer id="191" name="model.2.2.branch2.3.weight_compressed" type="Const" version="opset1">
			<data element_type="f16" shape="60, 60, 1, 1" offset="59244" size="7200" />
			<output>
				<port id="0" precision="FP16">
					<dim>60</dim>
					<dim>60</dim>
					<dim>1</dim>
					<dim>1</dim>
				</port>
			</output>
		</layer>
		<layer id="192" name="model.2.2.branch2.3.weight" type="Convert" version="opset1">
			<data destination_type="f32" />
			<rt_info>
				<attribute name="decompression" version="0" />
			</rt_info>
			<input>
				<port id="0" precision="FP16">
					<dim>60</dim>
					<dim>60</dim>
					<dim>1</dim>
					<dim>1</dim>
				</port>
			</input>
			<output>
				<port id="1" precision="FP32" names="model.2.2.branch2.3.weight">
					<dim>60</dim>
					<dim>60</dim>
					<dim>1</dim>
					<dim>1</dim>
				</port>
			</output>
		</layer>
		<layer id="193" name="/model.2/model.2.2/branch2/branch2.3/Conv/WithoutBiases" type="Convolution" version="opset1">
			<data strides="1, 1" dilations="1, 1" pads_begin="0, 0" pads_end="0, 0" auto_pad="explicit" />
			<input>
				<port id="0" precision="FP32">
					<dim>1</dim>
					<dim>60</dim>
					<dim>40</dim>
					<dim>40</dim>
				</port>
				<port id="1" precision="FP32">
					<dim>60</dim>
					<dim>60</dim>
					<dim>1</dim>
					<dim>1</dim>
				</port>
			</input>
			<output>
				<port id="2" precision="FP32">
					<dim>1</dim>
					<dim>60</dim>
					<dim>40</dim>
					<dim>40</dim>
				</port>
			</output>
		</layer>
		<layer id="194" name="Reshape_997_compressed" type="Const" version="opset1">
			<data element_type="f16" shape="1, 60, 1, 1" offset="66444" size="120" />
			<output>
				<port id="0" precision="FP16">
					<dim>1</dim>
					<dim>60</dim>
					<dim>1</dim>
					<dim>1</dim>
				</port>
			</output>
		</layer>
		<layer id="195" name="Reshape_997" type="Convert" version="opset1">
			<data destination_type="f32" />
			<rt_info>
				<attribute name="decompression" version="0" />
			</rt_info>
			<input>
				<port id="0" precision="FP16">
					<dim>1</dim>
					<dim>60</dim>
					<dim>1</dim>
					<dim>1</dim>
				</port>
			</input>
			<output>
				<port id="1" precision="FP32">
					<dim>1</dim>
					<dim>60</dim>
					<dim>1</dim>
					<dim>1</dim>
				</port>
			</output>
		</layer>
		<layer id="196" name="/model.2/model.2.2/branch2/branch2.3/Conv" type="Add" version="opset1">
			<data auto_broadcast="numpy" />
			<input>
				<port id="0" precision="FP32">
					<dim>1</dim>
					<dim>60</dim>
					<dim>40</dim>
					<dim>40</dim>
				</port>
				<port id="1" precision="FP32">
					<dim>1</dim>
					<dim>60</dim>
					<dim>1</dim>
					<dim>1</dim>
				</port>
			</input>
			<output>
				<port id="2" precision="FP32" names="/model.2/model.2.2/branch2/branch2.3/Conv_output_0">
					<dim>1</dim>
					<dim>60</dim>
					<dim>40</dim>
					<dim>40</dim>
				</port>
			</output>
		</layer>
		<layer id="197" name="/model.2/model.2.2/branch2/branch2.4/Relu" type="ReLU" version="opset1">
			<input>
				<port id="0" precision="FP32">
					<dim>1</dim>
					<dim>60</dim>
					<dim>40</dim>
					<dim>40</dim>
				</port>
			</input>
			<output>
				<port id="1" precision="FP32" names="/model.2/model.2.2/branch2/branch2.4/Relu_output_0">
					<dim>1</dim>
					<dim>60</dim>
					<dim>40</dim>
					<dim>40</dim>
				</port>
			</output>
		</layer>
		<layer id="198" name="/model.2/model.2.2/Concat" type="Concat" version="opset1">
			<data axis="1" />
			<input>
				<port id="0" precision="FP32">
					<dim>1</dim>
					<dim>60</dim>
					<dim>40</dim>
					<dim>40</dim>
				</port>
				<port id="1" precision="FP32">
					<dim>1</dim>
					<dim>60</dim>
					<dim>40</dim>
					<dim>40</dim>
				</port>
			</input>
			<output>
				<port id="2" precision="FP32" names="/model.2/model.2.2/Concat_output_0">
					<dim>1</dim>
					<dim>120</dim>
					<dim>40</dim>
					<dim>40</dim>
				</port>
			</output>
		</layer>
		<layer id="199" name="/model.2/model.2.2/Constant_6" type="Const" version="opset1">
			<data element_type="i64" shape="5" offset="18872" size="40" />
			<output>
				<port id="0" precision="I64" names="/model.2/model.2.2/Constant_6_output_0">
					<dim>5</dim>
				</port>
			</output>
		</layer>
		<layer id="200" name="/model.2/model.2.2/Reshape" type="Reshape" version="opset1">
			<data special_zero="true" />
			<input>
				<port id="0" precision="FP32">
					<dim>1</dim>
					<dim>120</dim>
					<dim>40</dim>
					<dim>40</dim>
				</port>
				<port id="1" precision="I64">
					<dim>5</dim>
				</port>
			</input>
			<output>
				<port id="2" precision="FP32" names="/model.2/model.2.2/Reshape_output_0">
					<dim>1</dim>
					<dim>2</dim>
					<dim>60</dim>
					<dim>40</dim>
					<dim>40</dim>
				</port>
			</output>
		</layer>
		<layer id="201" name="Constant_1007" type="Const" version="opset1">
			<data element_type="i64" shape="5" offset="18912" size="40" />
			<output>
				<port id="0" precision="I64">
					<dim>5</dim>
				</port>
			</output>
		</layer>
		<layer id="202" name="/model.2/model.2.2/Transpose" type="Transpose" version="opset1">
			<input>
				<port id="0" precision="FP32">
					<dim>1</dim>
					<dim>2</dim>
					<dim>60</dim>
					<dim>40</dim>
					<dim>40</dim>
				</port>
				<port id="1" precision="I64">
					<dim>5</dim>
				</port>
			</input>
			<output>
				<port id="2" precision="FP32" names="/model.2/model.2.2/Transpose_output_0">
					<dim>1</dim>
					<dim>60</dim>
					<dim>2</dim>
					<dim>40</dim>
					<dim>40</dim>
				</port>
			</output>
		</layer>
		<layer id="203" name="/model.2/model.2.2/Constant_7" type="Const" version="opset1">
			<data element_type="i64" shape="4" offset="18952" size="32" />
			<output>
				<port id="0" precision="I64" names="/model.2/model.2.2/Constant_7_output_0">
					<dim>4</dim>
				</port>
			</output>
		</layer>
		<layer id="204" name="/model.2/model.2.2/Reshape_1" type="Reshape" version="opset1">
			<data special_zero="true" />
			<input>
				<port id="0" precision="FP32">
					<dim>1</dim>
					<dim>60</dim>
					<dim>2</dim>
					<dim>40</dim>
					<dim>40</dim>
				</port>
				<port id="1" precision="I64">
					<dim>4</dim>
				</port>
			</input>
			<output>
				<port id="2" precision="FP32" names="/model.2/model.2.2/Reshape_1_output_0">
					<dim>1</dim>
					<dim>120</dim>
					<dim>40</dim>
					<dim>40</dim>
				</port>
			</output>
		</layer>
		<layer id="205" name="Reshape_1020_compressed" type="Const" version="opset1">
			<data element_type="f16" shape="120, 1, 1, 3, 3" offset="66564" size="2160" />
			<output>
				<port id="0" precision="FP16">
					<dim>120</dim>
					<dim>1</dim>
					<dim>1</dim>
					<dim>3</dim>
					<dim>3</dim>
				</port>
			</output>
		</layer>
		<layer id="206" name="Reshape_1020" type="Convert" version="opset1">
			<data destination_type="f32" />
			<rt_info>
				<attribute name="decompression" version="0" />
			</rt_info>
			<input>
				<port id="0" precision="FP16">
					<dim>120</dim>
					<dim>1</dim>
					<dim>1</dim>
					<dim>3</dim>
					<dim>3</dim>
				</port>
			</input>
			<output>
				<port id="1" precision="FP32">
					<dim>120</dim>
					<dim>1</dim>
					<dim>1</dim>
					<dim>3</dim>
					<dim>3</dim>
				</port>
			</output>
		</layer>
		<layer id="207" name="/model.3/branch1/branch1.0/Conv/WithoutBiases" type="GroupConvolution" version="opset1">
			<data strides="2, 2" pads_begin="1, 1" pads_end="1, 1" dilations="1, 1" auto_pad="explicit" />
			<input>
				<port id="0" precision="FP32">
					<dim>1</dim>
					<dim>120</dim>
					<dim>40</dim>
					<dim>40</dim>
				</port>
				<port id="1" precision="FP32">
					<dim>120</dim>
					<dim>1</dim>
					<dim>1</dim>
					<dim>3</dim>
					<dim>3</dim>
				</port>
			</input>
			<output>
				<port id="2" precision="FP32">
					<dim>1</dim>
					<dim>120</dim>
					<dim>20</dim>
					<dim>20</dim>
				</port>
			</output>
		</layer>
		<layer id="208" name="Reshape_1072_compressed" type="Const" version="opset1">
			<data element_type="f16" shape="1, 120, 1, 1" offset="68724" size="240" />
			<output>
				<port id="0" precision="FP16">
					<dim>1</dim>
					<dim>120</dim>
					<dim>1</dim>
					<dim>1</dim>
				</port>
			</output>
		</layer>
		<layer id="209" name="Reshape_1072" type="Convert" version="opset1">
			<data destination_type="f32" />
			<rt_info>
				<attribute name="decompression" version="0" />
			</rt_info>
			<input>
				<port id="0" precision="FP16">
					<dim>1</dim>
					<dim>120</dim>
					<dim>1</dim>
					<dim>1</dim>
				</port>
			</input>
			<output>
				<port id="1" precision="FP32">
					<dim>1</dim>
					<dim>120</dim>
					<dim>1</dim>
					<dim>1</dim>
				</port>
			</output>
		</layer>
		<layer id="210" name="/model.3/branch1/branch1.0/Conv" type="Add" version="opset1">
			<data auto_broadcast="numpy" />
			<input>
				<port id="0" precision="FP32">
					<dim>1</dim>
					<dim>120</dim>
					<dim>20</dim>
					<dim>20</dim>
				</port>
				<port id="1" precision="FP32">
					<dim>1</dim>
					<dim>120</dim>
					<dim>1</dim>
					<dim>1</dim>
				</port>
			</input>
			<output>
				<port id="2" precision="FP32" names="/model.3/branch1/branch1.0/Conv_output_0">
					<dim>1</dim>
					<dim>120</dim>
					<dim>20</dim>
					<dim>20</dim>
				</port>
			</output>
		</layer>
		<layer id="211" name="model.3.branch1.1.weight_compressed" type="Const" version="opset1">
			<data element_type="f16" shape="116, 120, 1, 1" offset="68964" size="27840" />
			<output>
				<port id="0" precision="FP16">
					<dim>116</dim>
					<dim>120</dim>
					<dim>1</dim>
					<dim>1</dim>
				</port>
			</output>
		</layer>
		<layer id="212" name="model.3.branch1.1.weight" type="Convert" version="opset1">
			<data destination_type="f32" />
			<rt_info>
				<attribute name="decompression" version="0" />
			</rt_info>
			<input>
				<port id="0" precision="FP16">
					<dim>116</dim>
					<dim>120</dim>
					<dim>1</dim>
					<dim>1</dim>
				</port>
			</input>
			<output>
				<port id="1" precision="FP32" names="model.3.branch1.1.weight">
					<dim>116</dim>
					<dim>120</dim>
					<dim>1</dim>
					<dim>1</dim>
				</port>
			</output>
		</layer>
		<layer id="213" name="/model.3/branch1/branch1.1/Conv/WithoutBiases" type="Convolution" version="opset1">
			<data strides="1, 1" dilations="1, 1" pads_begin="0, 0" pads_end="0, 0" auto_pad="explicit" />
			<input>
				<port id="0" precision="FP32">
					<dim>1</dim>
					<dim>120</dim>
					<dim>20</dim>
					<dim>20</dim>
				</port>
				<port id="1" precision="FP32">
					<dim>116</dim>
					<dim>120</dim>
					<dim>1</dim>
					<dim>1</dim>
				</port>
			</input>
			<output>
				<port id="2" precision="FP32">
					<dim>1</dim>
					<dim>116</dim>
					<dim>20</dim>
					<dim>20</dim>
				</port>
			</output>
		</layer>
		<layer id="214" name="Reshape_1087_compressed" type="Const" version="opset1">
			<data element_type="f16" shape="1, 116, 1, 1" offset="96804" size="232" />
			<output>
				<port id="0" precision="FP16">
					<dim>1</dim>
					<dim>116</dim>
					<dim>1</dim>
					<dim>1</dim>
				</port>
			</output>
		</layer>
		<layer id="215" name="Reshape_1087" type="Convert" version="opset1">
			<data destination_type="f32" />
			<rt_info>
				<attribute name="decompression" version="0" />
			</rt_info>
			<input>
				<port id="0" precision="FP16">
					<dim>1</dim>
					<dim>116</dim>
					<dim>1</dim>
					<dim>1</dim>
				</port>
			</input>
			<output>
				<port id="1" precision="FP32">
					<dim>1</dim>
					<dim>116</dim>
					<dim>1</dim>
					<dim>1</dim>
				</port>
			</output>
		</layer>
		<layer id="216" name="/model.3/branch1/branch1.1/Conv" type="Add" version="opset1">
			<data auto_broadcast="numpy" />
			<input>
				<port id="0" precision="FP32">
					<dim>1</dim>
					<dim>116</dim>
					<dim>20</dim>
					<dim>20</dim>
				</port>
				<port id="1" precision="FP32">
					<dim>1</dim>
					<dim>116</dim>
					<dim>1</dim>
					<dim>1</dim>
				</port>
			</input>
			<output>
				<port id="2" precision="FP32" names="/model.3/branch1/branch1.1/Conv_output_0">
					<dim>1</dim>
					<dim>116</dim>
					<dim>20</dim>
					<dim>20</dim>
				</port>
			</output>
		</layer>
		<layer id="217" name="/model.3/branch1/branch1.2/Relu" type="ReLU" version="opset1">
			<input>
				<port id="0" precision="FP32">
					<dim>1</dim>
					<dim>116</dim>
					<dim>20</dim>
					<dim>20</dim>
				</port>
			</input>
			<output>
				<port id="1" precision="FP32" names="/model.3/branch1/branch1.2/Relu_output_0">
					<dim>1</dim>
					<dim>116</dim>
					<dim>20</dim>
					<dim>20</dim>
				</port>
			</output>
		</layer>
		<layer id="218" name="model.3.branch2.0.weight_compressed" type="Const" version="opset1">
			<data element_type="f16" shape="116, 120, 1, 1" offset="97036" size="27840" />
			<output>
				<port id="0" precision="FP16">
					<dim>116</dim>
					<dim>120</dim>
					<dim>1</dim>
					<dim>1</dim>
				</port>
			</output>
		</layer>
		<layer id="219" name="model.3.branch2.0.weight" type="Convert" version="opset1">
			<data destination_type="f32" />
			<rt_info>
				<attribute name="decompression" version="0" />
			</rt_info>
			<input>
				<port id="0" precision="FP16">
					<dim>116</dim>
					<dim>120</dim>
					<dim>1</dim>
					<dim>1</dim>
				</port>
			</input>
			<output>
				<port id="1" precision="FP32" names="model.3.branch2.0.weight">
					<dim>116</dim>
					<dim>120</dim>
					<dim>1</dim>
					<dim>1</dim>
				</port>
			</output>
		</layer>
		<layer id="220" name="/model.3/branch2/branch2.0/Conv/WithoutBiases" type="Convolution" version="opset1">
			<data strides="1, 1" dilations="1, 1" pads_begin="0, 0" pads_end="0, 0" auto_pad="explicit" />
			<input>
				<port id="0" precision="FP32">
					<dim>1</dim>
					<dim>120</dim>
					<dim>40</dim>
					<dim>40</dim>
				</port>
				<port id="1" precision="FP32">
					<dim>116</dim>
					<dim>120</dim>
					<dim>1</dim>
					<dim>1</dim>
				</port>
			</input>
			<output>
				<port id="2" precision="FP32">
					<dim>1</dim>
					<dim>116</dim>
					<dim>40</dim>
					<dim>40</dim>
				</port>
			</output>
		</layer>
		<layer id="221" name="Reshape_1103_compressed" type="Const" version="opset1">
			<data element_type="f16" shape="1, 116, 1, 1" offset="124876" size="232" />
			<output>
				<port id="0" precision="FP16">
					<dim>1</dim>
					<dim>116</dim>
					<dim>1</dim>
					<dim>1</dim>
				</port>
			</output>
		</layer>
		<layer id="222" name="Reshape_1103" type="Convert" version="opset1">
			<data destination_type="f32" />
			<rt_info>
				<attribute name="decompression" version="0" />
			</rt_info>
			<input>
				<port id="0" precision="FP16">
					<dim>1</dim>
					<dim>116</dim>
					<dim>1</dim>
					<dim>1</dim>
				</port>
			</input>
			<output>
				<port id="1" precision="FP32">
					<dim>1</dim>
					<dim>116</dim>
					<dim>1</dim>
					<dim>1</dim>
				</port>
			</output>
		</layer>
		<layer id="223" name="/model.3/branch2/branch2.0/Conv" type="Add" version="opset1">
			<data auto_broadcast="numpy" />
			<input>
				<port id="0" precision="FP32">
					<dim>1</dim>
					<dim>116</dim>
					<dim>40</dim>
					<dim>40</dim>
				</port>
				<port id="1" precision="FP32">
					<dim>1</dim>
					<dim>116</dim>
					<dim>1</dim>
					<dim>1</dim>
				</port>
			</input>
			<output>
				<port id="2" precision="FP32" names="/model.3/branch2/branch2.0/Conv_output_0">
					<dim>1</dim>
					<dim>116</dim>
					<dim>40</dim>
					<dim>40</dim>
				</port>
			</output>
		</layer>
		<layer id="224" name="/model.3/branch2/branch2.1/Relu" type="ReLU" version="opset1">
			<input>
				<port id="0" precision="FP32">
					<dim>1</dim>
					<dim>116</dim>
					<dim>40</dim>
					<dim>40</dim>
				</port>
			</input>
			<output>
				<port id="1" precision="FP32" names="/model.3/branch2/branch2.1/Relu_output_0">
					<dim>1</dim>
					<dim>116</dim>
					<dim>40</dim>
					<dim>40</dim>
				</port>
			</output>
		</layer>
		<layer id="225" name="Reshape_1115_compressed" type="Const" version="opset1">
			<data element_type="f16" shape="116, 1, 1, 3, 3" offset="125108" size="2088" />
			<output>
				<port id="0" precision="FP16">
					<dim>116</dim>
					<dim>1</dim>
					<dim>1</dim>
					<dim>3</dim>
					<dim>3</dim>
				</port>
			</output>
		</layer>
		<layer id="226" name="Reshape_1115" type="Convert" version="opset1">
			<data destination_type="f32" />
			<rt_info>
				<attribute name="decompression" version="0" />
			</rt_info>
			<input>
				<port id="0" precision="FP16">
					<dim>116</dim>
					<dim>1</dim>
					<dim>1</dim>
					<dim>3</dim>
					<dim>3</dim>
				</port>
			</input>
			<output>
				<port id="1" precision="FP32">
					<dim>116</dim>
					<dim>1</dim>
					<dim>1</dim>
					<dim>3</dim>
					<dim>3</dim>
				</port>
			</output>
		</layer>
		<layer id="227" name="/model.3/branch2/branch2.2/Conv/WithoutBiases" type="GroupConvolution" version="opset1">
			<data strides="2, 2" pads_begin="1, 1" pads_end="1, 1" dilations="1, 1" auto_pad="explicit" />
			<input>
				<port id="0" precision="FP32">
					<dim>1</dim>
					<dim>116</dim>
					<dim>40</dim>
					<dim>40</dim>
				</port>
				<port id="1" precision="FP32">
					<dim>116</dim>
					<dim>1</dim>
					<dim>1</dim>
					<dim>3</dim>
					<dim>3</dim>
				</port>
			</input>
			<output>
				<port id="2" precision="FP32">
					<dim>1</dim>
					<dim>116</dim>
					<dim>20</dim>
					<dim>20</dim>
				</port>
			</output>
		</layer>
		<layer id="228" name="Reshape_1167_compressed" type="Const" version="opset1">
			<data element_type="f16" shape="1, 116, 1, 1" offset="127196" size="232" />
			<output>
				<port id="0" precision="FP16">
					<dim>1</dim>
					<dim>116</dim>
					<dim>1</dim>
					<dim>1</dim>
				</port>
			</output>
		</layer>
		<layer id="229" name="Reshape_1167" type="Convert" version="opset1">
			<data destination_type="f32" />
			<rt_info>
				<attribute name="decompression" version="0" />
			</rt_info>
			<input>
				<port id="0" precision="FP16">
					<dim>1</dim>
					<dim>116</dim>
					<dim>1</dim>
					<dim>1</dim>
				</port>
			</input>
			<output>
				<port id="1" precision="FP32">
					<dim>1</dim>
					<dim>116</dim>
					<dim>1</dim>
					<dim>1</dim>
				</port>
			</output>
		</layer>
		<layer id="230" name="/model.3/branch2/branch2.2/Conv" type="Add" version="opset1">
			<data auto_broadcast="numpy" />
			<input>
				<port id="0" precision="FP32">
					<dim>1</dim>
					<dim>116</dim>
					<dim>20</dim>
					<dim>20</dim>
				</port>
				<port id="1" precision="FP32">
					<dim>1</dim>
					<dim>116</dim>
					<dim>1</dim>
					<dim>1</dim>
				</port>
			</input>
			<output>
				<port id="2" precision="FP32" names="/model.3/branch2/branch2.2/Conv_output_0">
					<dim>1</dim>
					<dim>116</dim>
					<dim>20</dim>
					<dim>20</dim>
				</port>
			</output>
		</layer>
		<layer id="231" name="model.3.branch2.3.weight_compressed" type="Const" version="opset1">
			<data element_type="f16" shape="116, 116, 1, 1" offset="127428" size="26912" />
			<output>
				<port id="0" precision="FP16">
					<dim>116</dim>
					<dim>116</dim>
					<dim>1</dim>
					<dim>1</dim>
				</port>
			</output>
		</layer>
		<layer id="232" name="model.3.branch2.3.weight" type="Convert" version="opset1">
			<data destination_type="f32" />
			<rt_info>
				<attribute name="decompression" version="0" />
			</rt_info>
			<input>
				<port id="0" precision="FP16">
					<dim>116</dim>
					<dim>116</dim>
					<dim>1</dim>
					<dim>1</dim>
				</port>
			</input>
			<output>
				<port id="1" precision="FP32" names="model.3.branch2.3.weight">
					<dim>116</dim>
					<dim>116</dim>
					<dim>1</dim>
					<dim>1</dim>
				</port>
			</output>
		</layer>
		<layer id="233" name="/model.3/branch2/branch2.3/Conv/WithoutBiases" type="Convolution" version="opset1">
			<data strides="1, 1" dilations="1, 1" pads_begin="0, 0" pads_end="0, 0" auto_pad="explicit" />
			<input>
				<port id="0" precision="FP32">
					<dim>1</dim>
					<dim>116</dim>
					<dim>20</dim>
					<dim>20</dim>
				</port>
				<port id="1" precision="FP32">
					<dim>116</dim>
					<dim>116</dim>
					<dim>1</dim>
					<dim>1</dim>
				</port>
			</input>
			<output>
				<port id="2" precision="FP32">
					<dim>1</dim>
					<dim>116</dim>
					<dim>20</dim>
					<dim>20</dim>
				</port>
			</output>
		</layer>
		<layer id="234" name="Reshape_1182_compressed" type="Const" version="opset1">
			<data element_type="f16" shape="1, 116, 1, 1" offset="154340" size="232" />
			<output>
				<port id="0" precision="FP16">
					<dim>1</dim>
					<dim>116</dim>
					<dim>1</dim>
					<dim>1</dim>
				</port>
			</output>
		</layer>
		<layer id="235" name="Reshape_1182" type="Convert" version="opset1">
			<data destination_type="f32" />
			<rt_info>
				<attribute name="decompression" version="0" />
			</rt_info>
			<input>
				<port id="0" precision="FP16">
					<dim>1</dim>
					<dim>116</dim>
					<dim>1</dim>
					<dim>1</dim>
				</port>
			</input>
			<output>
				<port id="1" precision="FP32">
					<dim>1</dim>
					<dim>116</dim>
					<dim>1</dim>
					<dim>1</dim>
				</port>
			</output>
		</layer>
		<layer id="236" name="/model.3/branch2/branch2.3/Conv" type="Add" version="opset1">
			<data auto_broadcast="numpy" />
			<input>
				<port id="0" precision="FP32">
					<dim>1</dim>
					<dim>116</dim>
					<dim>20</dim>
					<dim>20</dim>
				</port>
				<port id="1" precision="FP32">
					<dim>1</dim>
					<dim>116</dim>
					<dim>1</dim>
					<dim>1</dim>
				</port>
			</input>
			<output>
				<port id="2" precision="FP32" names="/model.3/branch2/branch2.3/Conv_output_0">
					<dim>1</dim>
					<dim>116</dim>
					<dim>20</dim>
					<dim>20</dim>
				</port>
			</output>
		</layer>
		<layer id="237" name="/model.3/branch2/branch2.4/Relu" type="ReLU" version="opset1">
			<input>
				<port id="0" precision="FP32">
					<dim>1</dim>
					<dim>116</dim>
					<dim>20</dim>
					<dim>20</dim>
				</port>
			</input>
			<output>
				<port id="1" precision="FP32" names="/model.3/branch2/branch2.4/Relu_output_0">
					<dim>1</dim>
					<dim>116</dim>
					<dim>20</dim>
					<dim>20</dim>
				</port>
			</output>
		</layer>
		<layer id="238" name="/model.3/Concat" type="Concat" version="opset1">
			<data axis="1" />
			<input>
				<port id="0" precision="FP32">
					<dim>1</dim>
					<dim>116</dim>
					<dim>20</dim>
					<dim>20</dim>
				</port>
				<port id="1" precision="FP32">
					<dim>1</dim>
					<dim>116</dim>
					<dim>20</dim>
					<dim>20</dim>
				</port>
			</input>
			<output>
				<port id="2" precision="FP32" names="/model.3/Concat_output_0">
					<dim>1</dim>
					<dim>232</dim>
					<dim>20</dim>
					<dim>20</dim>
				</port>
			</output>
		</layer>
		<layer id="239" name="/model.3/Constant" type="Const" version="opset1">
			<data element_type="i64" shape="5" offset="154572" size="40" />
			<output>
				<port id="0" precision="I64" names="/model.3/Constant_output_0">
					<dim>5</dim>
				</port>
			</output>
		</layer>
		<layer id="240" name="/model.3/Reshape" type="Reshape" version="opset1">
			<data special_zero="true" />
			<input>
				<port id="0" precision="FP32">
					<dim>1</dim>
					<dim>232</dim>
					<dim>20</dim>
					<dim>20</dim>
				</port>
				<port id="1" precision="I64">
					<dim>5</dim>
				</port>
			</input>
			<output>
				<port id="2" precision="FP32" names="/model.3/Reshape_output_0">
					<dim>1</dim>
					<dim>2</dim>
					<dim>116</dim>
					<dim>20</dim>
					<dim>20</dim>
				</port>
			</output>
		</layer>
		<layer id="241" name="Constant_1192" type="Const" version="opset1">
			<data element_type="i64" shape="5" offset="18912" size="40" />
			<output>
				<port id="0" precision="I64">
					<dim>5</dim>
				</port>
			</output>
		</layer>
		<layer id="242" name="/model.3/Transpose" type="Transpose" version="opset1">
			<input>
				<port id="0" precision="FP32">
					<dim>1</dim>
					<dim>2</dim>
					<dim>116</dim>
					<dim>20</dim>
					<dim>20</dim>
				</port>
				<port id="1" precision="I64">
					<dim>5</dim>
				</port>
			</input>
			<output>
				<port id="2" precision="FP32" names="/model.3/Transpose_output_0">
					<dim>1</dim>
					<dim>116</dim>
					<dim>2</dim>
					<dim>20</dim>
					<dim>20</dim>
				</port>
			</output>
		</layer>
		<layer id="243" name="/model.3/Constant_1" type="Const" version="opset1">
			<data element_type="i64" shape="4" offset="154612" size="32" />
			<output>
				<port id="0" precision="I64" names="/model.3/Constant_1_output_0">
					<dim>4</dim>
				</port>
			</output>
		</layer>
		<layer id="244" name="/model.3/Reshape_1" type="Reshape" version="opset1">
			<data special_zero="true" />
			<input>
				<port id="0" precision="FP32">
					<dim>1</dim>
					<dim>116</dim>
					<dim>2</dim>
					<dim>20</dim>
					<dim>20</dim>
				</port>
				<port id="1" precision="I64">
					<dim>4</dim>
				</port>
			</input>
			<output>
				<port id="2" precision="FP32" names="/model.3/Reshape_1_output_0">
					<dim>1</dim>
					<dim>232</dim>
					<dim>20</dim>
					<dim>20</dim>
				</port>
			</output>
		</layer>
		<layer id="245" name="Constant_12034" type="Const" version="opset1">
			<data element_type="i64" shape="2" offset="18984" size="16" />
			<output>
				<port id="0" precision="I64">
					<dim>2</dim>
				</port>
			</output>
		</layer>
		<layer id="246" name="Constant_12035" type="Const" version="opset1">
			<data element_type="i64" shape="2" offset="18984" size="16" />
			<output>
				<port id="0" precision="I64">
					<dim>2</dim>
				</port>
			</output>
		</layer>
		<layer id="247" name="Constant_12031" type="Const" version="opset1">
			<data element_type="i64" shape="1" offset="19000" size="8" />
			<output>
				<port id="0" precision="I64">
					<dim>1</dim>
				</port>
			</output>
		</layer>
		<layer id="248" name="/model.4/model.4.0/Shape" type="ShapeOf" version="opset3">
			<data output_type="i64" />
			<input>
				<port id="0" precision="FP32">
					<dim>1</dim>
					<dim>232</dim>
					<dim>20</dim>
					<dim>20</dim>
				</port>
			</input>
			<output>
				<port id="1" precision="I64" names="/model.4/model.4.0/Shape_output_0">
					<dim>4</dim>
				</port>
			</output>
		</layer>
		<layer id="249" name="/model.4/model.4.0/Constant" type="Const" version="opset1">
			<data element_type="i64" shape="1" offset="19000" size="8" />
			<output>
				<port id="0" precision="I64" names="/model.4/model.4.0/Constant_output_0">
					<dim>1</dim>
				</port>
			</output>
		</layer>
		<layer id="250" name="Constant_1200" type="Const" version="opset1">
			<data element_type="i64" shape="" offset="19008" size="8" />
			<output>
				<port id="0" precision="I64" />
			</output>
		</layer>
		<layer id="251" name="/model.4/model.4.0/Gather" type="Gather" version="opset8">
			<data batch_dims="0" />
			<input>
				<port id="0" precision="I64">
					<dim>4</dim>
				</port>
				<port id="1" precision="I64">
					<dim>1</dim>
				</port>
				<port id="2" precision="I64" />
			</input>
			<output>
				<port id="3" precision="I64" names="/model.4/model.4.0/Gather_output_0">
					<dim>1</dim>
				</port>
			</output>
		</layer>
		<layer id="252" name="/model.4/model.4.0/Constant_2" type="Const" version="opset1">
			<data element_type="i64" shape="1" offset="19000" size="8" />
			<output>
				<port id="0" precision="I64" names="/model.4/model.4.0/Constant_2_output_0">
					<dim>1</dim>
				</port>
			</output>
		</layer>
		<layer id="253" name="/model.4/model.4.0/Add" type="Add" version="opset1">
			<data auto_broadcast="numpy" />
			<input>
				<port id="0" precision="I64">
					<dim>1</dim>
				</port>
				<port id="1" precision="I64">
					<dim>1</dim>
				</port>
			</input>
			<output>
				<port id="2" precision="I64" names="/model.4/model.4.0/Add_output_0">
					<dim>1</dim>
				</port>
			</output>
		</layer>
		<layer id="254" name="/model.4/model.4.0/Constant_3" type="Const" version="opset1">
			<data element_type="i64" shape="1" offset="19016" size="8" />
			<output>
				<port id="0" precision="I64" names="/model.4/model.4.0/Constant_3_output_0">
					<dim>1</dim>
				</port>
			</output>
		</layer>
		<layer id="255" name="/model.4/model.4.0/Div" type="Divide" version="opset1">
			<data auto_broadcast="numpy" m_pythondiv="true" />
			<input>
				<port id="0" precision="I64">
					<dim>1</dim>
				</port>
				<port id="1" precision="I64">
					<dim>1</dim>
				</port>
			</input>
			<output>
				<port id="2" precision="I64" names="/model.4/model.4.0/Div_output_0,/model.4/model.4.0/Mul_output_0">
					<dim>1</dim>
				</port>
			</output>
		</layer>
		<layer id="256" name="Constant_12030" type="Const" version="opset1">
			<data element_type="i32" shape="1" offset="19024" size="4" />
			<output>
				<port id="0" precision="I32">
					<dim>1</dim>
				</port>
			</output>
		</layer>
		<layer id="257" name="ScatterUpdate_12036" type="ScatterUpdate" version="opset3">
			<input>
				<port id="0" precision="I64">
					<dim>2</dim>
				</port>
				<port id="1" precision="I64">
					<dim>1</dim>
				</port>
				<port id="2" precision="I64">
					<dim>1</dim>
				</port>
				<port id="3" precision="I32">
					<dim>1</dim>
				</port>
			</input>
			<output>
				<port id="4" precision="I64">
					<dim>2</dim>
				</port>
			</output>
		</layer>
		<layer id="258" name="Constant_12039" type="Const" version="opset1">
			<data element_type="i64" shape="2" offset="19028" size="16" />
			<output>
				<port id="0" precision="I64">
					<dim>2</dim>
				</port>
			</output>
		</layer>
		<layer id="259" name="/model.4/model.4.0/Slice" type="StridedSlice" version="opset1">
			<data begin_mask="1, 0" end_mask="1, 0" new_axis_mask="" shrink_axis_mask="" ellipsis_mask="" />
			<input>
				<port id="0" precision="FP32">
					<dim>1</dim>
					<dim>232</dim>
					<dim>20</dim>
					<dim>20</dim>
				</port>
				<port id="1" precision="I64">
					<dim>2</dim>
				</port>
				<port id="2" precision="I64">
					<dim>2</dim>
				</port>
				<port id="3" precision="I64">
					<dim>2</dim>
				</port>
			</input>
			<output>
				<port id="4" precision="FP32" names="/model.4/model.4.0/Slice_output_0">
					<dim>1</dim>
					<dim>116</dim>
					<dim>20</dim>
					<dim>20</dim>
				</port>
			</output>
		</layer>
		<layer id="260" name="Constant_12083" type="Const" version="opset1">
			<data element_type="i64" shape="2" offset="18984" size="16" />
			<output>
				<port id="0" precision="I64">
					<dim>2</dim>
				</port>
			</output>
		</layer>
		<layer id="261" name="Constant_12082" type="Const" version="opset1">
			<data element_type="i64" shape="1" offset="19000" size="8" />
			<output>
				<port id="0" precision="I64">
					<dim>1</dim>
				</port>
			</output>
		</layer>
		<layer id="262" name="Constant_12081" type="Const" version="opset1">
			<data element_type="i32" shape="1" offset="19024" size="4" />
			<output>
				<port id="0" precision="I32">
					<dim>1</dim>
				</port>
			</output>
		</layer>
		<layer id="263" name="ScatterUpdate_12084" type="ScatterUpdate" version="opset3">
			<input>
				<port id="0" precision="I64">
					<dim>2</dim>
				</port>
				<port id="1" precision="I64">
					<dim>1</dim>
				</port>
				<port id="2" precision="I64">
					<dim>1</dim>
				</port>
				<port id="3" precision="I32">
					<dim>1</dim>
				</port>
			</input>
			<output>
				<port id="4" precision="I64">
					<dim>2</dim>
				</port>
			</output>
		</layer>
		<layer id="264" name="Constant_12085" type="Const" version="opset1">
			<data element_type="i64" shape="2" offset="18984" size="16" />
			<output>
				<port id="0" precision="I64">
					<dim>2</dim>
				</port>
			</output>
		</layer>
		<layer id="265" name="/model.4/model.4.0/Constant_5" type="Const" version="opset1">
			<data element_type="i64" shape="1" offset="19016" size="8" />
			<output>
				<port id="0" precision="I64" names="/model.4/model.4.0/Constant_5_output_0">
					<dim>1</dim>
				</port>
			</output>
		</layer>
		<layer id="266" name="/model.4/model.4.0/Mul_1" type="Multiply" version="opset1">
			<data auto_broadcast="numpy" />
			<input>
				<port id="0" precision="I64">
					<dim>1</dim>
				</port>
				<port id="1" precision="I64">
					<dim>1</dim>
				</port>
			</input>
			<output>
				<port id="2" precision="I64" names="/model.4/model.4.0/Mul_1_output_0">
					<dim>1</dim>
				</port>
			</output>
		</layer>
		<layer id="267" name="ScatterUpdate_12086" type="ScatterUpdate" version="opset3">
			<input>
				<port id="0" precision="I64">
					<dim>2</dim>
				</port>
				<port id="1" precision="I64">
					<dim>1</dim>
				</port>
				<port id="2" precision="I64">
					<dim>1</dim>
				</port>
				<port id="3" precision="I32">
					<dim>1</dim>
				</port>
			</input>
			<output>
				<port id="4" precision="I64">
					<dim>2</dim>
				</port>
			</output>
		</layer>
		<layer id="268" name="Constant_12089" type="Const" version="opset1">
			<data element_type="i64" shape="2" offset="19028" size="16" />
			<output>
				<port id="0" precision="I64">
					<dim>2</dim>
				</port>
			</output>
		</layer>
		<layer id="269" name="/model.4/model.4.0/Slice_1" type="StridedSlice" version="opset1">
			<data begin_mask="1, 0" end_mask="1, 0" new_axis_mask="" shrink_axis_mask="" ellipsis_mask="" />
			<input>
				<port id="0" precision="FP32">
					<dim>1</dim>
					<dim>232</dim>
					<dim>20</dim>
					<dim>20</dim>
				</port>
				<port id="1" precision="I64">
					<dim>2</dim>
				</port>
				<port id="2" precision="I64">
					<dim>2</dim>
				</port>
				<port id="3" precision="I64">
					<dim>2</dim>
				</port>
			</input>
			<output>
				<port id="4" precision="FP32" names="/model.4/model.4.0/Slice_1_output_0">
					<dim>1</dim>
					<dim>116</dim>
					<dim>20</dim>
					<dim>20</dim>
				</port>
			</output>
		</layer>
		<layer id="270" name="model.4.0.branch2.0.weight_compressed" type="Const" version="opset1">
			<data element_type="f16" shape="116, 116, 1, 1" offset="154644" size="26912" />
			<output>
				<port id="0" precision="FP16">
					<dim>116</dim>
					<dim>116</dim>
					<dim>1</dim>
					<dim>1</dim>
				</port>
			</output>
		</layer>
		<layer id="271" name="model.4.0.branch2.0.weight" type="Convert" version="opset1">
			<data destination_type="f32" />
			<rt_info>
				<attribute name="decompression" version="0" />
			</rt_info>
			<input>
				<port id="0" precision="FP16">
					<dim>116</dim>
					<dim>116</dim>
					<dim>1</dim>
					<dim>1</dim>
				</port>
			</input>
			<output>
				<port id="1" precision="FP32" names="model.4.0.branch2.0.weight">
					<dim>116</dim>
					<dim>116</dim>
					<dim>1</dim>
					<dim>1</dim>
				</port>
			</output>
		</layer>
		<layer id="272" name="/model.4/model.4.0/branch2/branch2.0/Conv/WithoutBiases" type="Convolution" version="opset1">
			<data strides="1, 1" dilations="1, 1" pads_begin="0, 0" pads_end="0, 0" auto_pad="explicit" />
			<input>
				<port id="0" precision="FP32">
					<dim>1</dim>
					<dim>116</dim>
					<dim>20</dim>
					<dim>20</dim>
				</port>
				<port id="1" precision="FP32">
					<dim>116</dim>
					<dim>116</dim>
					<dim>1</dim>
					<dim>1</dim>
				</port>
			</input>
			<output>
				<port id="2" precision="FP32">
					<dim>1</dim>
					<dim>116</dim>
					<dim>20</dim>
					<dim>20</dim>
				</port>
			</output>
		</layer>
		<layer id="273" name="Reshape_1318_compressed" type="Const" version="opset1">
			<data element_type="f16" shape="1, 116, 1, 1" offset="181556" size="232" />
			<output>
				<port id="0" precision="FP16">
					<dim>1</dim>
					<dim>116</dim>
					<dim>1</dim>
					<dim>1</dim>
				</port>
			</output>
		</layer>
		<layer id="274" name="Reshape_1318" type="Convert" version="opset1">
			<data destination_type="f32" />
			<rt_info>
				<attribute name="decompression" version="0" />
			</rt_info>
			<input>
				<port id="0" precision="FP16">
					<dim>1</dim>
					<dim>116</dim>
					<dim>1</dim>
					<dim>1</dim>
				</port>
			</input>
			<output>
				<port id="1" precision="FP32">
					<dim>1</dim>
					<dim>116</dim>
					<dim>1</dim>
					<dim>1</dim>
				</port>
			</output>
		</layer>
		<layer id="275" name="/model.4/model.4.0/branch2/branch2.0/Conv" type="Add" version="opset1">
			<data auto_broadcast="numpy" />
			<input>
				<port id="0" precision="FP32">
					<dim>1</dim>
					<dim>116</dim>
					<dim>20</dim>
					<dim>20</dim>
				</port>
				<port id="1" precision="FP32">
					<dim>1</dim>
					<dim>116</dim>
					<dim>1</dim>
					<dim>1</dim>
				</port>
			</input>
			<output>
				<port id="2" precision="FP32" names="/model.4/model.4.0/branch2/branch2.0/Conv_output_0">
					<dim>1</dim>
					<dim>116</dim>
					<dim>20</dim>
					<dim>20</dim>
				</port>
			</output>
		</layer>
		<layer id="276" name="/model.4/model.4.0/branch2/branch2.1/Relu" type="ReLU" version="opset1">
			<input>
				<port id="0" precision="FP32">
					<dim>1</dim>
					<dim>116</dim>
					<dim>20</dim>
					<dim>20</dim>
				</port>
			</input>
			<output>
				<port id="1" precision="FP32" names="/model.4/model.4.0/branch2/branch2.1/Relu_output_0">
					<dim>1</dim>
					<dim>116</dim>
					<dim>20</dim>
					<dim>20</dim>
				</port>
			</output>
		</layer>
		<layer id="277" name="Reshape_1330_compressed" type="Const" version="opset1">
			<data element_type="f16" shape="116, 1, 1, 3, 3" offset="181788" size="2088" />
			<output>
				<port id="0" precision="FP16">
					<dim>116</dim>
					<dim>1</dim>
					<dim>1</dim>
					<dim>3</dim>
					<dim>3</dim>
				</port>
			</output>
		</layer>
		<layer id="278" name="Reshape_1330" type="Convert" version="opset1">
			<data destination_type="f32" />
			<rt_info>
				<attribute name="decompression" version="0" />
			</rt_info>
			<input>
				<port id="0" precision="FP16">
					<dim>116</dim>
					<dim>1</dim>
					<dim>1</dim>
					<dim>3</dim>
					<dim>3</dim>
				</port>
			</input>
			<output>
				<port id="1" precision="FP32">
					<dim>116</dim>
					<dim>1</dim>
					<dim>1</dim>
					<dim>3</dim>
					<dim>3</dim>
				</port>
			</output>
		</layer>
		<layer id="279" name="/model.4/model.4.0/branch2/branch2.2/Conv/WithoutBiases" type="GroupConvolution" version="opset1">
			<data strides="1, 1" pads_begin="1, 1" pads_end="1, 1" dilations="1, 1" auto_pad="explicit" />
			<input>
				<port id="0" precision="FP32">
					<dim>1</dim>
					<dim>116</dim>
					<dim>20</dim>
					<dim>20</dim>
				</port>
				<port id="1" precision="FP32">
					<dim>116</dim>
					<dim>1</dim>
					<dim>1</dim>
					<dim>3</dim>
					<dim>3</dim>
				</port>
			</input>
			<output>
				<port id="2" precision="FP32">
					<dim>1</dim>
					<dim>116</dim>
					<dim>20</dim>
					<dim>20</dim>
				</port>
			</output>
		</layer>
		<layer id="280" name="Reshape_1382_compressed" type="Const" version="opset1">
			<data element_type="f16" shape="1, 116, 1, 1" offset="183876" size="232" />
			<output>
				<port id="0" precision="FP16">
					<dim>1</dim>
					<dim>116</dim>
					<dim>1</dim>
					<dim>1</dim>
				</port>
			</output>
		</layer>
		<layer id="281" name="Reshape_1382" type="Convert" version="opset1">
			<data destination_type="f32" />
			<rt_info>
				<attribute name="decompression" version="0" />
			</rt_info>
			<input>
				<port id="0" precision="FP16">
					<dim>1</dim>
					<dim>116</dim>
					<dim>1</dim>
					<dim>1</dim>
				</port>
			</input>
			<output>
				<port id="1" precision="FP32">
					<dim>1</dim>
					<dim>116</dim>
					<dim>1</dim>
					<dim>1</dim>
				</port>
			</output>
		</layer>
		<layer id="282" name="/model.4/model.4.0/branch2/branch2.2/Conv" type="Add" version="opset1">
			<data auto_broadcast="numpy" />
			<input>
				<port id="0" precision="FP32">
					<dim>1</dim>
					<dim>116</dim>
					<dim>20</dim>
					<dim>20</dim>
				</port>
				<port id="1" precision="FP32">
					<dim>1</dim>
					<dim>116</dim>
					<dim>1</dim>
					<dim>1</dim>
				</port>
			</input>
			<output>
				<port id="2" precision="FP32" names="/model.4/model.4.0/branch2/branch2.2/Conv_output_0">
					<dim>1</dim>
					<dim>116</dim>
					<dim>20</dim>
					<dim>20</dim>
				</port>
			</output>
		</layer>
		<layer id="283" name="model.4.0.branch2.3.weight_compressed" type="Const" version="opset1">
			<data element_type="f16" shape="116, 116, 1, 1" offset="184108" size="26912" />
			<output>
				<port id="0" precision="FP16">
					<dim>116</dim>
					<dim>116</dim>
					<dim>1</dim>
					<dim>1</dim>
				</port>
			</output>
		</layer>
		<layer id="284" name="model.4.0.branch2.3.weight" type="Convert" version="opset1">
			<data destination_type="f32" />
			<rt_info>
				<attribute name="decompression" version="0" />
			</rt_info>
			<input>
				<port id="0" precision="FP16">
					<dim>116</dim>
					<dim>116</dim>
					<dim>1</dim>
					<dim>1</dim>
				</port>
			</input>
			<output>
				<port id="1" precision="FP32" names="model.4.0.branch2.3.weight">
					<dim>116</dim>
					<dim>116</dim>
					<dim>1</dim>
					<dim>1</dim>
				</port>
			</output>
		</layer>
		<layer id="285" name="/model.4/model.4.0/branch2/branch2.3/Conv/WithoutBiases" type="Convolution" version="opset1">
			<data strides="1, 1" dilations="1, 1" pads_begin="0, 0" pads_end="0, 0" auto_pad="explicit" />
			<input>
				<port id="0" precision="FP32">
					<dim>1</dim>
					<dim>116</dim>
					<dim>20</dim>
					<dim>20</dim>
				</port>
				<port id="1" precision="FP32">
					<dim>116</dim>
					<dim>116</dim>
					<dim>1</dim>
					<dim>1</dim>
				</port>
			</input>
			<output>
				<port id="2" precision="FP32">
					<dim>1</dim>
					<dim>116</dim>
					<dim>20</dim>
					<dim>20</dim>
				</port>
			</output>
		</layer>
		<layer id="286" name="Reshape_1397_compressed" type="Const" version="opset1">
			<data element_type="f16" shape="1, 116, 1, 1" offset="211020" size="232" />
			<output>
				<port id="0" precision="FP16">
					<dim>1</dim>
					<dim>116</dim>
					<dim>1</dim>
					<dim>1</dim>
				</port>
			</output>
		</layer>
		<layer id="287" name="Reshape_1397" type="Convert" version="opset1">
			<data destination_type="f32" />
			<rt_info>
				<attribute name="decompression" version="0" />
			</rt_info>
			<input>
				<port id="0" precision="FP16">
					<dim>1</dim>
					<dim>116</dim>
					<dim>1</dim>
					<dim>1</dim>
				</port>
			</input>
			<output>
				<port id="1" precision="FP32">
					<dim>1</dim>
					<dim>116</dim>
					<dim>1</dim>
					<dim>1</dim>
				</port>
			</output>
		</layer>
		<layer id="288" name="/model.4/model.4.0/branch2/branch2.3/Conv" type="Add" version="opset1">
			<data auto_broadcast="numpy" />
			<input>
				<port id="0" precision="FP32">
					<dim>1</dim>
					<dim>116</dim>
					<dim>20</dim>
					<dim>20</dim>
				</port>
				<port id="1" precision="FP32">
					<dim>1</dim>
					<dim>116</dim>
					<dim>1</dim>
					<dim>1</dim>
				</port>
			</input>
			<output>
				<port id="2" precision="FP32" names="/model.4/model.4.0/branch2/branch2.3/Conv_output_0">
					<dim>1</dim>
					<dim>116</dim>
					<dim>20</dim>
					<dim>20</dim>
				</port>
			</output>
		</layer>
		<layer id="289" name="/model.4/model.4.0/branch2/branch2.4/Relu" type="ReLU" version="opset1">
			<input>
				<port id="0" precision="FP32">
					<dim>1</dim>
					<dim>116</dim>
					<dim>20</dim>
					<dim>20</dim>
				</port>
			</input>
			<output>
				<port id="1" precision="FP32" names="/model.4/model.4.0/branch2/branch2.4/Relu_output_0">
					<dim>1</dim>
					<dim>116</dim>
					<dim>20</dim>
					<dim>20</dim>
				</port>
			</output>
		</layer>
		<layer id="290" name="/model.4/model.4.0/Concat" type="Concat" version="opset1">
			<data axis="1" />
			<input>
				<port id="0" precision="FP32">
					<dim>1</dim>
					<dim>116</dim>
					<dim>20</dim>
					<dim>20</dim>
				</port>
				<port id="1" precision="FP32">
					<dim>1</dim>
					<dim>116</dim>
					<dim>20</dim>
					<dim>20</dim>
				</port>
			</input>
			<output>
				<port id="2" precision="FP32" names="/model.4/model.4.0/Concat_output_0">
					<dim>1</dim>
					<dim>232</dim>
					<dim>20</dim>
					<dim>20</dim>
				</port>
			</output>
		</layer>
		<layer id="291" name="/model.4/model.4.0/Constant_6" type="Const" version="opset1">
			<data element_type="i64" shape="5" offset="154572" size="40" />
			<output>
				<port id="0" precision="I64" names="/model.4/model.4.0/Constant_6_output_0">
					<dim>5</dim>
				</port>
			</output>
		</layer>
		<layer id="292" name="/model.4/model.4.0/Reshape" type="Reshape" version="opset1">
			<data special_zero="true" />
			<input>
				<port id="0" precision="FP32">
					<dim>1</dim>
					<dim>232</dim>
					<dim>20</dim>
					<dim>20</dim>
				</port>
				<port id="1" precision="I64">
					<dim>5</dim>
				</port>
			</input>
			<output>
				<port id="2" precision="FP32" names="/model.4/model.4.0/Reshape_output_0">
					<dim>1</dim>
					<dim>2</dim>
					<dim>116</dim>
					<dim>20</dim>
					<dim>20</dim>
				</port>
			</output>
		</layer>
		<layer id="293" name="Constant_1407" type="Const" version="opset1">
			<data element_type="i64" shape="5" offset="18912" size="40" />
			<output>
				<port id="0" precision="I64">
					<dim>5</dim>
				</port>
			</output>
		</layer>
		<layer id="294" name="/model.4/model.4.0/Transpose" type="Transpose" version="opset1">
			<input>
				<port id="0" precision="FP32">
					<dim>1</dim>
					<dim>2</dim>
					<dim>116</dim>
					<dim>20</dim>
					<dim>20</dim>
				</port>
				<port id="1" precision="I64">
					<dim>5</dim>
				</port>
			</input>
			<output>
				<port id="2" precision="FP32" names="/model.4/model.4.0/Transpose_output_0">
					<dim>1</dim>
					<dim>116</dim>
					<dim>2</dim>
					<dim>20</dim>
					<dim>20</dim>
				</port>
			</output>
		</layer>
		<layer id="295" name="/model.4/model.4.0/Constant_7" type="Const" version="opset1">
			<data element_type="i64" shape="4" offset="154612" size="32" />
			<output>
				<port id="0" precision="I64" names="/model.4/model.4.0/Constant_7_output_0">
					<dim>4</dim>
				</port>
			</output>
		</layer>
		<layer id="296" name="/model.4/model.4.0/Reshape_1" type="Reshape" version="opset1">
			<data special_zero="true" />
			<input>
				<port id="0" precision="FP32">
					<dim>1</dim>
					<dim>116</dim>
					<dim>2</dim>
					<dim>20</dim>
					<dim>20</dim>
				</port>
				<port id="1" precision="I64">
					<dim>4</dim>
				</port>
			</input>
			<output>
				<port id="2" precision="FP32" names="/model.4/model.4.0/Reshape_1_output_0">
					<dim>1</dim>
					<dim>232</dim>
					<dim>20</dim>
					<dim>20</dim>
				</port>
			</output>
		</layer>
		<layer id="297" name="Constant_12175" type="Const" version="opset1">
			<data element_type="i64" shape="2" offset="18984" size="16" />
			<output>
				<port id="0" precision="I64">
					<dim>2</dim>
				</port>
			</output>
		</layer>
		<layer id="298" name="Constant_12176" type="Const" version="opset1">
			<data element_type="i64" shape="2" offset="18984" size="16" />
			<output>
				<port id="0" precision="I64">
					<dim>2</dim>
				</port>
			</output>
		</layer>
		<layer id="299" name="Constant_12172" type="Const" version="opset1">
			<data element_type="i64" shape="1" offset="19000" size="8" />
			<output>
				<port id="0" precision="I64">
					<dim>1</dim>
				</port>
			</output>
		</layer>
		<layer id="300" name="/model.4/model.4.1/Shape" type="ShapeOf" version="opset3">
			<data output_type="i64" />
			<input>
				<port id="0" precision="FP32">
					<dim>1</dim>
					<dim>232</dim>
					<dim>20</dim>
					<dim>20</dim>
				</port>
			</input>
			<output>
				<port id="1" precision="I64" names="/model.4/model.4.1/Shape_output_0">
					<dim>4</dim>
				</port>
			</output>
		</layer>
		<layer id="301" name="/model.4/model.4.1/Constant" type="Const" version="opset1">
			<data element_type="i64" shape="1" offset="19000" size="8" />
			<output>
				<port id="0" precision="I64" names="/model.4/model.4.1/Constant_output_0">
					<dim>1</dim>
				</port>
			</output>
		</layer>
		<layer id="302" name="Constant_1415" type="Const" version="opset1">
			<data element_type="i64" shape="" offset="19008" size="8" />
			<output>
				<port id="0" precision="I64" />
			</output>
		</layer>
		<layer id="303" name="/model.4/model.4.1/Gather" type="Gather" version="opset8">
			<data batch_dims="0" />
			<input>
				<port id="0" precision="I64">
					<dim>4</dim>
				</port>
				<port id="1" precision="I64">
					<dim>1</dim>
				</port>
				<port id="2" precision="I64" />
			</input>
			<output>
				<port id="3" precision="I64" names="/model.4/model.4.1/Gather_output_0">
					<dim>1</dim>
				</port>
			</output>
		</layer>
		<layer id="304" name="/model.4/model.4.1/Constant_2" type="Const" version="opset1">
			<data element_type="i64" shape="1" offset="19000" size="8" />
			<output>
				<port id="0" precision="I64" names="/model.4/model.4.1/Constant_2_output_0">
					<dim>1</dim>
				</port>
			</output>
		</layer>
		<layer id="305" name="/model.4/model.4.1/Add" type="Add" version="opset1">
			<data auto_broadcast="numpy" />
			<input>
				<port id="0" precision="I64">
					<dim>1</dim>
				</port>
				<port id="1" precision="I64">
					<dim>1</dim>
				</port>
			</input>
			<output>
				<port id="2" precision="I64" names="/model.4/model.4.1/Add_output_0">
					<dim>1</dim>
				</port>
			</output>
		</layer>
		<layer id="306" name="/model.4/model.4.1/Constant_3" type="Const" version="opset1">
			<data element_type="i64" shape="1" offset="19016" size="8" />
			<output>
				<port id="0" precision="I64" names="/model.4/model.4.1/Constant_3_output_0">
					<dim>1</dim>
				</port>
			</output>
		</layer>
		<layer id="307" name="/model.4/model.4.1/Div" type="Divide" version="opset1">
			<data auto_broadcast="numpy" m_pythondiv="true" />
			<input>
				<port id="0" precision="I64">
					<dim>1</dim>
				</port>
				<port id="1" precision="I64">
					<dim>1</dim>
				</port>
			</input>
			<output>
				<port id="2" precision="I64" names="/model.4/model.4.1/Div_output_0,/model.4/model.4.1/Mul_output_0">
					<dim>1</dim>
				</port>
			</output>
		</layer>
		<layer id="308" name="Constant_12171" type="Const" version="opset1">
			<data element_type="i32" shape="1" offset="19024" size="4" />
			<output>
				<port id="0" precision="I32">
					<dim>1</dim>
				</port>
			</output>
		</layer>
		<layer id="309" name="ScatterUpdate_12177" type="ScatterUpdate" version="opset3">
			<input>
				<port id="0" precision="I64">
					<dim>2</dim>
				</port>
				<port id="1" precision="I64">
					<dim>1</dim>
				</port>
				<port id="2" precision="I64">
					<dim>1</dim>
				</port>
				<port id="3" precision="I32">
					<dim>1</dim>
				</port>
			</input>
			<output>
				<port id="4" precision="I64">
					<dim>2</dim>
				</port>
			</output>
		</layer>
		<layer id="310" name="Constant_12180" type="Const" version="opset1">
			<data element_type="i64" shape="2" offset="19028" size="16" />
			<output>
				<port id="0" precision="I64">
					<dim>2</dim>
				</port>
			</output>
		</layer>
		<layer id="311" name="/model.4/model.4.1/Slice" type="StridedSlice" version="opset1">
			<data begin_mask="1, 0" end_mask="1, 0" new_axis_mask="" shrink_axis_mask="" ellipsis_mask="" />
			<input>
				<port id="0" precision="FP32">
					<dim>1</dim>
					<dim>232</dim>
					<dim>20</dim>
					<dim>20</dim>
				</port>
				<port id="1" precision="I64">
					<dim>2</dim>
				</port>
				<port id="2" precision="I64">
					<dim>2</dim>
				</port>
				<port id="3" precision="I64">
					<dim>2</dim>
				</port>
			</input>
			<output>
				<port id="4" precision="FP32" names="/model.4/model.4.1/Slice_output_0">
					<dim>1</dim>
					<dim>116</dim>
					<dim>20</dim>
					<dim>20</dim>
				</port>
			</output>
		</layer>
		<layer id="312" name="Constant_12224" type="Const" version="opset1">
			<data element_type="i64" shape="2" offset="18984" size="16" />
			<output>
				<port id="0" precision="I64">
					<dim>2</dim>
				</port>
			</output>
		</layer>
		<layer id="313" name="Constant_12223" type="Const" version="opset1">
			<data element_type="i64" shape="1" offset="19000" size="8" />
			<output>
				<port id="0" precision="I64">
					<dim>1</dim>
				</port>
			</output>
		</layer>
		<layer id="314" name="Constant_12222" type="Const" version="opset1">
			<data element_type="i32" shape="1" offset="19024" size="4" />
			<output>
				<port id="0" precision="I32">
					<dim>1</dim>
				</port>
			</output>
		</layer>
		<layer id="315" name="ScatterUpdate_12225" type="ScatterUpdate" version="opset3">
			<input>
				<port id="0" precision="I64">
					<dim>2</dim>
				</port>
				<port id="1" precision="I64">
					<dim>1</dim>
				</port>
				<port id="2" precision="I64">
					<dim>1</dim>
				</port>
				<port id="3" precision="I32">
					<dim>1</dim>
				</port>
			</input>
			<output>
				<port id="4" precision="I64">
					<dim>2</dim>
				</port>
			</output>
		</layer>
		<layer id="316" name="Constant_12226" type="Const" version="opset1">
			<data element_type="i64" shape="2" offset="18984" size="16" />
			<output>
				<port id="0" precision="I64">
					<dim>2</dim>
				</port>
			</output>
		</layer>
		<layer id="317" name="/model.4/model.4.1/Constant_5" type="Const" version="opset1">
			<data element_type="i64" shape="1" offset="19016" size="8" />
			<output>
				<port id="0" precision="I64" names="/model.4/model.4.1/Constant_5_output_0">
					<dim>1</dim>
				</port>
			</output>
		</layer>
		<layer id="318" name="/model.4/model.4.1/Mul_1" type="Multiply" version="opset1">
			<data auto_broadcast="numpy" />
			<input>
				<port id="0" precision="I64">
					<dim>1</dim>
				</port>
				<port id="1" precision="I64">
					<dim>1</dim>
				</port>
			</input>
			<output>
				<port id="2" precision="I64" names="/model.4/model.4.1/Mul_1_output_0">
					<dim>1</dim>
				</port>
			</output>
		</layer>
		<layer id="319" name="ScatterUpdate_12227" type="ScatterUpdate" version="opset3">
			<input>
				<port id="0" precision="I64">
					<dim>2</dim>
				</port>
				<port id="1" precision="I64">
					<dim>1</dim>
				</port>
				<port id="2" precision="I64">
					<dim>1</dim>
				</port>
				<port id="3" precision="I32">
					<dim>1</dim>
				</port>
			</input>
			<output>
				<port id="4" precision="I64">
					<dim>2</dim>
				</port>
			</output>
		</layer>
		<layer id="320" name="Constant_12230" type="Const" version="opset1">
			<data element_type="i64" shape="2" offset="19028" size="16" />
			<output>
				<port id="0" precision="I64">
					<dim>2</dim>
				</port>
			</output>
		</layer>
		<layer id="321" name="/model.4/model.4.1/Slice_1" type="StridedSlice" version="opset1">
			<data begin_mask="1, 0" end_mask="1, 0" new_axis_mask="" shrink_axis_mask="" ellipsis_mask="" />
			<input>
				<port id="0" precision="FP32">
					<dim>1</dim>
					<dim>232</dim>
					<dim>20</dim>
					<dim>20</dim>
				</port>
				<port id="1" precision="I64">
					<dim>2</dim>
				</port>
				<port id="2" precision="I64">
					<dim>2</dim>
				</port>
				<port id="3" precision="I64">
					<dim>2</dim>
				</port>
			</input>
			<output>
				<port id="4" precision="FP32" names="/model.4/model.4.1/Slice_1_output_0">
					<dim>1</dim>
					<dim>116</dim>
					<dim>20</dim>
					<dim>20</dim>
				</port>
			</output>
		</layer>
		<layer id="322" name="model.4.1.branch2.0.weight_compressed" type="Const" version="opset1">
			<data element_type="f16" shape="116, 116, 1, 1" offset="211252" size="26912" />
			<output>
				<port id="0" precision="FP16">
					<dim>116</dim>
					<dim>116</dim>
					<dim>1</dim>
					<dim>1</dim>
				</port>
			</output>
		</layer>
		<layer id="323" name="model.4.1.branch2.0.weight" type="Convert" version="opset1">
			<data destination_type="f32" />
			<rt_info>
				<attribute name="decompression" version="0" />
			</rt_info>
			<input>
				<port id="0" precision="FP16">
					<dim>116</dim>
					<dim>116</dim>
					<dim>1</dim>
					<dim>1</dim>
				</port>
			</input>
			<output>
				<port id="1" precision="FP32" names="model.4.1.branch2.0.weight">
					<dim>116</dim>
					<dim>116</dim>
					<dim>1</dim>
					<dim>1</dim>
				</port>
			</output>
		</layer>
		<layer id="324" name="/model.4/model.4.1/branch2/branch2.0/Conv/WithoutBiases" type="Convolution" version="opset1">
			<data strides="1, 1" dilations="1, 1" pads_begin="0, 0" pads_end="0, 0" auto_pad="explicit" />
			<input>
				<port id="0" precision="FP32">
					<dim>1</dim>
					<dim>116</dim>
					<dim>20</dim>
					<dim>20</dim>
				</port>
				<port id="1" precision="FP32">
					<dim>116</dim>
					<dim>116</dim>
					<dim>1</dim>
					<dim>1</dim>
				</port>
			</input>
			<output>
				<port id="2" precision="FP32">
					<dim>1</dim>
					<dim>116</dim>
					<dim>20</dim>
					<dim>20</dim>
				</port>
			</output>
		</layer>
		<layer id="325" name="Reshape_1533_compressed" type="Const" version="opset1">
			<data element_type="f16" shape="1, 116, 1, 1" offset="238164" size="232" />
			<output>
				<port id="0" precision="FP16">
					<dim>1</dim>
					<dim>116</dim>
					<dim>1</dim>
					<dim>1</dim>
				</port>
			</output>
		</layer>
		<layer id="326" name="Reshape_1533" type="Convert" version="opset1">
			<data destination_type="f32" />
			<rt_info>
				<attribute name="decompression" version="0" />
			</rt_info>
			<input>
				<port id="0" precision="FP16">
					<dim>1</dim>
					<dim>116</dim>
					<dim>1</dim>
					<dim>1</dim>
				</port>
			</input>
			<output>
				<port id="1" precision="FP32">
					<dim>1</dim>
					<dim>116</dim>
					<dim>1</dim>
					<dim>1</dim>
				</port>
			</output>
		</layer>
		<layer id="327" name="/model.4/model.4.1/branch2/branch2.0/Conv" type="Add" version="opset1">
			<data auto_broadcast="numpy" />
			<input>
				<port id="0" precision="FP32">
					<dim>1</dim>
					<dim>116</dim>
					<dim>20</dim>
					<dim>20</dim>
				</port>
				<port id="1" precision="FP32">
					<dim>1</dim>
					<dim>116</dim>
					<dim>1</dim>
					<dim>1</dim>
				</port>
			</input>
			<output>
				<port id="2" precision="FP32" names="/model.4/model.4.1/branch2/branch2.0/Conv_output_0">
					<dim>1</dim>
					<dim>116</dim>
					<dim>20</dim>
					<dim>20</dim>
				</port>
			</output>
		</layer>
		<layer id="328" name="/model.4/model.4.1/branch2/branch2.1/Relu" type="ReLU" version="opset1">
			<input>
				<port id="0" precision="FP32">
					<dim>1</dim>
					<dim>116</dim>
					<dim>20</dim>
					<dim>20</dim>
				</port>
			</input>
			<output>
				<port id="1" precision="FP32" names="/model.4/model.4.1/branch2/branch2.1/Relu_output_0">
					<dim>1</dim>
					<dim>116</dim>
					<dim>20</dim>
					<dim>20</dim>
				</port>
			</output>
		</layer>
		<layer id="329" name="Reshape_1545_compressed" type="Const" version="opset1">
			<data element_type="f16" shape="116, 1, 1, 3, 3" offset="238396" size="2088" />
			<output>
				<port id="0" precision="FP16">
					<dim>116</dim>
					<dim>1</dim>
					<dim>1</dim>
					<dim>3</dim>
					<dim>3</dim>
				</port>
			</output>
		</layer>
		<layer id="330" name="Reshape_1545" type="Convert" version="opset1">
			<data destination_type="f32" />
			<rt_info>
				<attribute name="decompression" version="0" />
			</rt_info>
			<input>
				<port id="0" precision="FP16">
					<dim>116</dim>
					<dim>1</dim>
					<dim>1</dim>
					<dim>3</dim>
					<dim>3</dim>
				</port>
			</input>
			<output>
				<port id="1" precision="FP32">
					<dim>116</dim>
					<dim>1</dim>
					<dim>1</dim>
					<dim>3</dim>
					<dim>3</dim>
				</port>
			</output>
		</layer>
		<layer id="331" name="/model.4/model.4.1/branch2/branch2.2/Conv/WithoutBiases" type="GroupConvolution" version="opset1">
			<data strides="1, 1" pads_begin="1, 1" pads_end="1, 1" dilations="1, 1" auto_pad="explicit" />
			<input>
				<port id="0" precision="FP32">
					<dim>1</dim>
					<dim>116</dim>
					<dim>20</dim>
					<dim>20</dim>
				</port>
				<port id="1" precision="FP32">
					<dim>116</dim>
					<dim>1</dim>
					<dim>1</dim>
					<dim>3</dim>
					<dim>3</dim>
				</port>
			</input>
			<output>
				<port id="2" precision="FP32">
					<dim>1</dim>
					<dim>116</dim>
					<dim>20</dim>
					<dim>20</dim>
				</port>
			</output>
		</layer>
		<layer id="332" name="Reshape_1597_compressed" type="Const" version="opset1">
			<data element_type="f16" shape="1, 116, 1, 1" offset="240484" size="232" />
			<output>
				<port id="0" precision="FP16">
					<dim>1</dim>
					<dim>116</dim>
					<dim>1</dim>
					<dim>1</dim>
				</port>
			</output>
		</layer>
		<layer id="333" name="Reshape_1597" type="Convert" version="opset1">
			<data destination_type="f32" />
			<rt_info>
				<attribute name="decompression" version="0" />
			</rt_info>
			<input>
				<port id="0" precision="FP16">
					<dim>1</dim>
					<dim>116</dim>
					<dim>1</dim>
					<dim>1</dim>
				</port>
			</input>
			<output>
				<port id="1" precision="FP32">
					<dim>1</dim>
					<dim>116</dim>
					<dim>1</dim>
					<dim>1</dim>
				</port>
			</output>
		</layer>
		<layer id="334" name="/model.4/model.4.1/branch2/branch2.2/Conv" type="Add" version="opset1">
			<data auto_broadcast="numpy" />
			<input>
				<port id="0" precision="FP32">
					<dim>1</dim>
					<dim>116</dim>
					<dim>20</dim>
					<dim>20</dim>
				</port>
				<port id="1" precision="FP32">
					<dim>1</dim>
					<dim>116</dim>
					<dim>1</dim>
					<dim>1</dim>
				</port>
			</input>
			<output>
				<port id="2" precision="FP32" names="/model.4/model.4.1/branch2/branch2.2/Conv_output_0">
					<dim>1</dim>
					<dim>116</dim>
					<dim>20</dim>
					<dim>20</dim>
				</port>
			</output>
		</layer>
		<layer id="335" name="model.4.1.branch2.3.weight_compressed" type="Const" version="opset1">
			<data element_type="f16" shape="116, 116, 1, 1" offset="240716" size="26912" />
			<output>
				<port id="0" precision="FP16">
					<dim>116</dim>
					<dim>116</dim>
					<dim>1</dim>
					<dim>1</dim>
				</port>
			</output>
		</layer>
		<layer id="336" name="model.4.1.branch2.3.weight" type="Convert" version="opset1">
			<data destination_type="f32" />
			<rt_info>
				<attribute name="decompression" version="0" />
			</rt_info>
			<input>
				<port id="0" precision="FP16">
					<dim>116</dim>
					<dim>116</dim>
					<dim>1</dim>
					<dim>1</dim>
				</port>
			</input>
			<output>
				<port id="1" precision="FP32" names="model.4.1.branch2.3.weight">
					<dim>116</dim>
					<dim>116</dim>
					<dim>1</dim>
					<dim>1</dim>
				</port>
			</output>
		</layer>
		<layer id="337" name="/model.4/model.4.1/branch2/branch2.3/Conv/WithoutBiases" type="Convolution" version="opset1">
			<data strides="1, 1" dilations="1, 1" pads_begin="0, 0" pads_end="0, 0" auto_pad="explicit" />
			<input>
				<port id="0" precision="FP32">
					<dim>1</dim>
					<dim>116</dim>
					<dim>20</dim>
					<dim>20</dim>
				</port>
				<port id="1" precision="FP32">
					<dim>116</dim>
					<dim>116</dim>
					<dim>1</dim>
					<dim>1</dim>
				</port>
			</input>
			<output>
				<port id="2" precision="FP32">
					<dim>1</dim>
					<dim>116</dim>
					<dim>20</dim>
					<dim>20</dim>
				</port>
			</output>
		</layer>
		<layer id="338" name="Reshape_1612_compressed" type="Const" version="opset1">
			<data element_type="f16" shape="1, 116, 1, 1" offset="267628" size="232" />
			<output>
				<port id="0" precision="FP16">
					<dim>1</dim>
					<dim>116</dim>
					<dim>1</dim>
					<dim>1</dim>
				</port>
			</output>
		</layer>
		<layer id="339" name="Reshape_1612" type="Convert" version="opset1">
			<data destination_type="f32" />
			<rt_info>
				<attribute name="decompression" version="0" />
			</rt_info>
			<input>
				<port id="0" precision="FP16">
					<dim>1</dim>
					<dim>116</dim>
					<dim>1</dim>
					<dim>1</dim>
				</port>
			</input>
			<output>
				<port id="1" precision="FP32">
					<dim>1</dim>
					<dim>116</dim>
					<dim>1</dim>
					<dim>1</dim>
				</port>
			</output>
		</layer>
		<layer id="340" name="/model.4/model.4.1/branch2/branch2.3/Conv" type="Add" version="opset1">
			<data auto_broadcast="numpy" />
			<input>
				<port id="0" precision="FP32">
					<dim>1</dim>
					<dim>116</dim>
					<dim>20</dim>
					<dim>20</dim>
				</port>
				<port id="1" precision="FP32">
					<dim>1</dim>
					<dim>116</dim>
					<dim>1</dim>
					<dim>1</dim>
				</port>
			</input>
			<output>
				<port id="2" precision="FP32" names="/model.4/model.4.1/branch2/branch2.3/Conv_output_0">
					<dim>1</dim>
					<dim>116</dim>
					<dim>20</dim>
					<dim>20</dim>
				</port>
			</output>
		</layer>
		<layer id="341" name="/model.4/model.4.1/branch2/branch2.4/Relu" type="ReLU" version="opset1">
			<input>
				<port id="0" precision="FP32">
					<dim>1</dim>
					<dim>116</dim>
					<dim>20</dim>
					<dim>20</dim>
				</port>
			</input>
			<output>
				<port id="1" precision="FP32" names="/model.4/model.4.1/branch2/branch2.4/Relu_output_0">
					<dim>1</dim>
					<dim>116</dim>
					<dim>20</dim>
					<dim>20</dim>
				</port>
			</output>
		</layer>
		<layer id="342" name="/model.4/model.4.1/Concat" type="Concat" version="opset1">
			<data axis="1" />
			<input>
				<port id="0" precision="FP32">
					<dim>1</dim>
					<dim>116</dim>
					<dim>20</dim>
					<dim>20</dim>
				</port>
				<port id="1" precision="FP32">
					<dim>1</dim>
					<dim>116</dim>
					<dim>20</dim>
					<dim>20</dim>
				</port>
			</input>
			<output>
				<port id="2" precision="FP32" names="/model.4/model.4.1/Concat_output_0">
					<dim>1</dim>
					<dim>232</dim>
					<dim>20</dim>
					<dim>20</dim>
				</port>
			</output>
		</layer>
		<layer id="343" name="/model.4/model.4.1/Constant_6" type="Const" version="opset1">
			<data element_type="i64" shape="5" offset="154572" size="40" />
			<output>
				<port id="0" precision="I64" names="/model.4/model.4.1/Constant_6_output_0">
					<dim>5</dim>
				</port>
			</output>
		</layer>
		<layer id="344" name="/model.4/model.4.1/Reshape" type="Reshape" version="opset1">
			<data special_zero="true" />
			<input>
				<port id="0" precision="FP32">
					<dim>1</dim>
					<dim>232</dim>
					<dim>20</dim>
					<dim>20</dim>
				</port>
				<port id="1" precision="I64">
					<dim>5</dim>
				</port>
			</input>
			<output>
				<port id="2" precision="FP32" names="/model.4/model.4.1/Reshape_output_0">
					<dim>1</dim>
					<dim>2</dim>
					<dim>116</dim>
					<dim>20</dim>
					<dim>20</dim>
				</port>
			</output>
		</layer>
		<layer id="345" name="Constant_1622" type="Const" version="opset1">
			<data element_type="i64" shape="5" offset="18912" size="40" />
			<output>
				<port id="0" precision="I64">
					<dim>5</dim>
				</port>
			</output>
		</layer>
		<layer id="346" name="/model.4/model.4.1/Transpose" type="Transpose" version="opset1">
			<input>
				<port id="0" precision="FP32">
					<dim>1</dim>
					<dim>2</dim>
					<dim>116</dim>
					<dim>20</dim>
					<dim>20</dim>
				</port>
				<port id="1" precision="I64">
					<dim>5</dim>
				</port>
			</input>
			<output>
				<port id="2" precision="FP32" names="/model.4/model.4.1/Transpose_output_0">
					<dim>1</dim>
					<dim>116</dim>
					<dim>2</dim>
					<dim>20</dim>
					<dim>20</dim>
				</port>
			</output>
		</layer>
		<layer id="347" name="/model.4/model.4.1/Constant_7" type="Const" version="opset1">
			<data element_type="i64" shape="4" offset="154612" size="32" />
			<output>
				<port id="0" precision="I64" names="/model.4/model.4.1/Constant_7_output_0">
					<dim>4</dim>
				</port>
			</output>
		</layer>
		<layer id="348" name="/model.4/model.4.1/Reshape_1" type="Reshape" version="opset1">
			<data special_zero="true" />
			<input>
				<port id="0" precision="FP32">
					<dim>1</dim>
					<dim>116</dim>
					<dim>2</dim>
					<dim>20</dim>
					<dim>20</dim>
				</port>
				<port id="1" precision="I64">
					<dim>4</dim>
				</port>
			</input>
			<output>
				<port id="2" precision="FP32" names="/model.4/model.4.1/Reshape_1_output_0">
					<dim>1</dim>
					<dim>232</dim>
					<dim>20</dim>
					<dim>20</dim>
				</port>
			</output>
		</layer>
		<layer id="349" name="Constant_12316" type="Const" version="opset1">
			<data element_type="i64" shape="2" offset="18984" size="16" />
			<output>
				<port id="0" precision="I64">
					<dim>2</dim>
				</port>
			</output>
		</layer>
		<layer id="350" name="Constant_12317" type="Const" version="opset1">
			<data element_type="i64" shape="2" offset="18984" size="16" />
			<output>
				<port id="0" precision="I64">
					<dim>2</dim>
				</port>
			</output>
		</layer>
		<layer id="351" name="Constant_12313" type="Const" version="opset1">
			<data element_type="i64" shape="1" offset="19000" size="8" />
			<output>
				<port id="0" precision="I64">
					<dim>1</dim>
				</port>
			</output>
		</layer>
		<layer id="352" name="/model.4/model.4.2/Shape" type="ShapeOf" version="opset3">
			<data output_type="i64" />
			<input>
				<port id="0" precision="FP32">
					<dim>1</dim>
					<dim>232</dim>
					<dim>20</dim>
					<dim>20</dim>
				</port>
			</input>
			<output>
…
		<edge from-layer="360" from-port="0" to-layer="361" to-port="3" />
		<edge from-layer="361" from-port="4" to-layer="363" to-port="2" />
		<edge from-layer="362" from-port="0" to-layer="363" to-port="3" />
		<edge from-layer="363" from-port="4" to-layer="394" to-port="0" />
		<edge from-layer="364" from-port="0" to-layer="367" to-port="0" />
		<edge from-layer="365" from-port="0" to-layer="367" to-port="1" />
		<edge from-layer="365" from-port="0" to-layer="371" to-port="1" />
		<edge from-layer="366" from-port="0" to-layer="367" to-port="3" />
		<edge from-layer="366" from-port="0" to-layer="371" to-port="3" />
		<edge from-layer="367" from-port="4" to-layer="373" to-port="1" />
		<edge from-layer="368" from-port="0" to-layer="371" to-port="0" />
		<edge from-layer="369" from-port="0" to-layer="370" to-port="1" />
		<edge from-layer="370" from-port="2" to-layer="371" to-port="2" />
		<edge from-layer="371" from-port="4" to-layer="373" to-port="2" />
		<edge from-layer="372" from-port="0" to-layer="373" to-port="3" />
		<edge from-layer="373" from-port="4" to-layer="376" to-port="0" />
		<edge from-layer="374" from-port="0" to-layer="375" to-port="0" />
		<edge from-layer="375" from-port="1" to-layer="376" to-port="1" />
		<edge from-layer="376" from-port="2" to-layer="379" to-port="0" />
		<edge from-layer="377" from-port="0" to-layer="378" to-port="0" />
		<edge from-layer="378" from-port="1" to-layer="379" to-port="1" />
		<edge from-layer="379" from-port="2" to-layer="380" to-port="0" />
		<edge from-layer="380" from-port="1" to-layer="383" to-port="0" />
		<edge from-layer="381" from-port="0" to-layer="382" to-port="0" />
		<edge from-layer="382" from-port="1" to-layer="383" to-port="1" />
		<edge from-layer="383" from-port="2" to-layer="386" to-port="0" />
		<edge from-layer="384" from-port="0" to-layer="385" to-port="0" />
		<edge from-layer="385" from-port="1" to-layer="386" to-port="1" />
		<edge from-layer="386" from-port="2" to-layer="389" to-port="0" />
		<edge from-layer="387" from-port="0" to-layer="388" to-port="0" />
		<edge from-layer="388" from-port="1" to-layer="389" to-port="1" />
		<edge from-layer="389" from-port="2" to-layer="392" to-port="0" />
		<edge from-layer="390" from-port="0" to-layer="391" to-port="0" />
		<edge from-layer="391" from-port="1" to-layer="392" to-port="1" />
		<edge from-layer="392" from-port="2" to-layer="393" to-port="0" />
		<edge from-layer="393" from-port="1" to-layer="394" to-port="1" />
		<edge from-layer="394" from-port="2" to-layer="396" to-port="0" />
		<edge from-layer="395" from-port="0" to-layer="396" to-port="1" />
		<edge from-layer="396" from-port="2" to-layer="398" to-port="0" />
		<edge from-layer="397" from-port="0" to-layer="398" to-port="1" />
		<edge from-layer="398" from-port="2" to-layer="400" to-port="0" />
		<edge from-layer="399" from-port="0" to-layer="400" to-port="1" />
		<edge from-layer="400" from-port="2" to-layer="404" to-port="0" />
		<edge from-layer="400" from-port="2" to-layer="425" to-port="0" />
		<edge from-layer="400" from-port="2" to-layer="415" to-port="0" />
		<edge from-layer="401" from-port="0" to-layer="415" to-port="1" />
		<edge from-layer="402" from-port="0" to-layer="413" to-port="0" />
		<edge from-layer="403" from-port="0" to-layer="413" to-port="1" />
		<edge from-layer="404" from-port="1" to-layer="407" to-port="0" />
		<edge from-layer="405" from-port="0" to-layer="407" to-port="1" />
		<edge from-layer="406" from-port="0" to-layer="407" to-port="2" />
		<edge from-layer="407" from-port="3" to-layer="409" to-port="0" />
		<edge from-layer="408" from-port="0" to-layer="409" to-port="1" />
		<edge from-layer="409" from-port="2" to-layer="411" to-port="0" />
		<edge from-layer="410" from-port="0" to-layer="411" to-port="1" />
		<edge from-layer="411" from-port="2" to-layer="413" to-port="2" />
		<edge from-layer="411" from-port="2" to-layer="419" to-port="2" />
		<edge from-layer="411" from-port="2" to-layer="422" to-port="0" />
		<edge from-layer="412" from-port="0" to-layer="413" to-port="3" />
		<edge from-layer="413" from-port="4" to-layer="415" to-port="2" />
		<edge from-layer="414" from-port="0" to-layer="415" to-port="3" />
		<edge from-layer="415" from-port="4" to-layer="446" to-port="0" />
		<edge from-layer="416" from-port="0" to-layer="419" to-port="0" />
		<edge from-layer="417" from-port="0" to-layer="419" to-port="1" />
		<edge from-layer="417" from-port="0" to-layer="423" to-port="1" />
		<edge from-layer="418" from-port="0" to-layer="419" to-port="3" />
		<edge from-layer="418" from-port="0" to-layer="423" to-port="3" />
		<edge from-layer="419" from-port="4" to-layer="425" to-port="1" />
		<edge from-layer="420" from-port="0" to-layer="423" to-port="0" />
		<edge from-layer="421" from-port="0" to-layer="422" to-port="1" />
		<edge from-layer="422" from-port="2" to-layer="423" to-port="2" />
		<edge from-layer="423" from-port="4" to-layer="425" to-port="2" />
		<edge from-layer="424" from-port="0" to-layer="425" to-port="3" />
		<edge from-layer="425" from-port="4" to-layer="428" to-port="0" />
		<edge from-layer="426" from-port="0" to-layer="427" to-port="0" />
		<edge from-layer="427" from-port="1" to-layer="428" to-port="1" />
		<edge from-layer="428" from-port="2" to-layer="431" to-port="0" />
		<edge from-layer="429" from-port="0" to-layer="430" to-port="0" />
		<edge from-layer="430" from-port="1" to-layer="431" to-port="1" />
		<edge from-layer="431" from-port="2" to-layer="432" to-port="0" />
		<edge from-layer="432" from-port="1" to-layer="435" to-port="0" />
		<edge from-layer="433" from-port="0" to-layer="434" to-port="0" />
		<edge from-layer="434" from-port="1" to-layer="435" to-port="1" />
		<edge from-layer="435" from-port="2" to-layer="438" to-port="0" />
		<edge from-layer="436" from-port="0" to-layer="437" to-port="0" />
		<edge from-layer="437" from-port="1" to-layer="438" to-port="1" />
		<edge from-layer="438" from-port="2" to-layer="441" to-port="0" />
		<edge from-layer="439" from-port="0" to-layer="440" to-port="0" />
		<edge from-layer="440" from-port="1" to-layer="441" to-port="1" />
		<edge from-layer="441" from-port="2" to-layer="444" to-port="0" />
		<edge from-layer="442" from-port="0" to-layer="443" to-port="0" />
		<edge from-layer="443" from-port="1" to-layer="444" to-port="1" />
		<edge from-layer="444" from-port="2" to-layer="445" to-port="0" />
		<edge from-layer="445" from-port="1" to-layer="446" to-port="1" />
		<edge from-layer="446" from-port="2" to-layer="448" to-port="0" />
		<edge from-layer="447" from-port="0" to-layer="448" to-port="1" />
		<edge from-layer="448" from-port="2" to-layer="450" to-port="0" />
		<edge from-layer="449" from-port="0" to-layer="450" to-port="1" />
		<edge from-layer="450" from-port="2" to-layer="452" to-port="0" />
		<edge from-layer="451" from-port="0" to-layer="452" to-port="1" />
		<edge from-layer="452" from-port="2" to-layer="456" to-port="0" />
		<edge from-layer="452" from-port="2" to-layer="467" to-port="0" />
		<edge from-layer="452" from-port="2" to-layer="477" to-port="0" />
		<edge from-layer="453" from-port="0" to-layer="467" to-port="1" />
		<edge from-layer="454" from-port="0" to-layer="465" to-port="0" />
		<edge from-layer="455" from-port="0" to-layer="465" to-port="1" />
		<edge from-layer="456" from-port="1" to-layer="459" to-port="0" />
		<edge from-layer="457" from-port="0" to-layer="459" to-port="1" />
		<edge from-layer="458" from-port="0" to-layer="459" to-port="2" />
		<edge from-layer="459" from-port="3" to-layer="461" to-port="0" />
		<edge from-layer="460" from-port="0" to-layer="461" to-port="1" />
		<edge from-layer="461" from-port="2" to-layer="463" to-port="0" />
		<edge from-layer="462" from-port="0" to-layer="463" to-port="1" />
		<edge from-layer="463" from-port="2" to-layer="465" to-port="2" />
		<edge from-layer="463" from-port="2" to-layer="471" to-port="2" />
		<edge from-layer="463" from-port="2" to-layer="474" to-port="0" />
		<edge from-layer="464" from-port="0" to-layer="465" to-port="3" />
		<edge from-layer="465" from-port="4" to-layer="467" to-port="2" />
		<edge from-layer="466" from-port="0" to-layer="467" to-port="3" />
		<edge from-layer="467" from-port="4" to-layer="498" to-port="0" />
		<edge from-layer="468" from-port="0" to-layer="471" to-port="0" />
		<edge from-layer="469" from-port="0" to-layer="475" to-port="1" />
		<edge from-layer="469" from-port="0" to-layer="471" to-port="1" />
		<edge from-layer="470" from-port="0" to-layer="475" to-port="3" />
		<edge from-layer="470" from-port="0" to-layer="471" to-port="3" />
		<edge from-layer="471" from-port="4" to-layer="477" to-port="1" />
		<edge from-layer="472" from-port="0" to-layer="475" to-port="0" />
		<edge from-layer="473" from-port="0" to-layer="474" to-port="1" />
		<edge from-layer="474" from-port="2" to-layer="475" to-port="2" />
		<edge from-layer="475" from-port="4" to-layer="477" to-port="2" />
		<edge from-layer="476" from-port="0" to-layer="477" to-port="3" />
		<edge from-layer="477" from-port="4" to-layer="480" to-port="0" />
		<edge from-layer="478" from-port="0" to-layer="479" to-port="0" />
		<edge from-layer="479" from-port="1" to-layer="480" to-port="1" />
		<edge from-layer="480" from-port="2" to-layer="483" to-port="0" />
		<edge from-layer="481" from-port="0" to-layer="482" to-port="0" />
		<edge from-layer="482" from-port="1" to-layer="483" to-port="1" />
		<edge from-layer="483" from-port="2" to-layer="484" to-port="0" />
		<edge from-layer="484" from-port="1" to-layer="487" to-port="0" />
		<edge from-layer="485" from-port="0" to-layer="486" to-port="0" />
		<edge from-layer="486" from-port="1" to-layer="487" to-port="1" />
		<edge from-layer="487" from-port="2" to-layer="490" to-port="0" />
		<edge from-layer="488" from-port="0" to-layer="489" to-port="0" />
		<edge from-layer="489" from-port="1" to-layer="490" to-port="1" />
		<edge from-layer="490" from-port="2" to-layer="493" to-port="0" />
		<edge from-layer="491" from-port="0" to-layer="492" to-port="0" />
		<edge from-layer="492" from-port="1" to-layer="493" to-port="1" />
		<edge from-layer="493" from-port="2" to-layer="496" to-port="0" />
		<edge from-layer="494" from-port="0" to-layer="495" to-port="0" />
		<edge from-layer="495" from-port="1" to-layer="496" to-port="1" />
		<edge from-layer="496" from-port="2" to-layer="497" to-port="0" />
		<edge from-layer="497" from-port="1" to-layer="498" to-port="1" />
		<edge from-layer="498" from-port="2" to-layer="500" to-port="0" />
		<edge from-layer="499" from-port="0" to-layer="500" to-port="1" />
		<edge from-layer="500" from-port="2" to-layer="502" to-port="0" />
		<edge from-layer="501" from-port="0" to-layer="502" to-port="1" />
		<edge from-layer="502" from-port="2" to-layer="504" to-port="0" />
		<edge from-layer="503" from-port="0" to-layer="504" to-port="1" />
		<edge from-layer="504" from-port="2" to-layer="508" to-port="0" />
		<edge from-layer="504" from-port="2" to-layer="519" to-port="0" />
		<edge from-layer="504" from-port="2" to-layer="529" to-port="0" />
		<edge from-layer="505" from-port="0" to-layer="519" to-port="1" />
		<edge from-layer="506" from-port="0" to-layer="517" to-port="0" />
		<edge from-layer="507" from-port="0" to-layer="517" to-port="1" />
		<edge from-layer="508" from-port="1" to-layer="511" to-port="0" />
		<edge from-layer="509" from-port="0" to-layer="511" to-port="1" />
		<edge from-layer="510" from-port="0" to-layer="511" to-port="2" />
		<edge from-layer="511" from-port="3" to-layer="513" to-port="0" />
		<edge from-layer="512" from-port="0" to-layer="513" to-port="1" />
		<edge from-layer="513" from-port="2" to-layer="515" to-port="0" />
		<edge from-layer="514" from-port="0" to-layer="515" to-port="1" />
		<edge from-layer="515" from-port="2" to-layer="526" to-port="0" />
		<edge from-layer="515" from-port="2" to-layer="523" to-port="2" />
		<edge from-layer="515" from-port="2" to-layer="517" to-port="2" />
		<edge from-layer="516" from-port="0" to-layer="517" to-port="3" />
		<edge from-layer="517" from-port="4" to-layer="519" to-port="2" />
		<edge from-layer="518" from-port="0" to-layer="519" to-port="3" />
		<edge from-layer="519" from-port="4" to-layer="550" to-port="0" />
		<edge from-layer="520" from-port="0" to-layer="523" to-port="0" />
		<edge from-layer="521" from-port="0" to-layer="523" to-port="1" />
		<edge from-layer="521" from-port="0" to-layer="527" to-port="1" />
		<edge from-layer="522" from-port="0" to-layer="523" to-port="3" />
		<edge from-layer="522" from-port="0" to-layer="527" to-port="3" />
		<edge from-layer="523" from-port="4" to-layer="529" to-port="1" />
		<edge from-layer="524" from-port="0" to-layer="527" to-port="0" />
		<edge from-layer="525" from-port="0" to-layer="526" to-port="1" />
		<edge from-layer="526" from-port="2" to-layer="527" to-port="2" />
		<edge from-layer="527" from-port="4" to-layer="529" to-port="2" />
		<edge from-layer="528" from-port="0" to-layer="529" to-port="3" />
		<edge from-layer="529" from-port="4" to-layer="532" to-port="0" />
		<edge from-layer="530" from-port="0" to-layer="531" to-port="0" />
		<edge from-layer="531" from-port="1" to-layer="532" to-port="1" />
		<edge from-layer="532" from-port="2" to-layer="535" to-port="0" />
		<edge from-layer="533" from-port="0" to-layer="534" to-port="0" />
		<edge from-layer="534" from-port="1" to-layer="535" to-port="1" />
		<edge from-layer="535" from-port="2" to-layer="536" to-port="0" />
		<edge from-layer="536" from-port="1" to-layer="539" to-port="0" />
		<edge from-layer="537" from-port="0" to-layer="538" to-port="0" />
		<edge from-layer="538" from-port="1" to-layer="539" to-port="1" />
		<edge from-layer="539" from-port="2" to-layer="542" to-port="0" />
		<edge from-layer="540" from-port="0" to-layer="541" to-port="0" />
		<edge from-layer="541" from-port="1" to-layer="542" to-port="1" />
		<edge from-layer="542" from-port="2" to-layer="545" to-port="0" />
		<edge from-layer="543" from-port="0" to-layer="544" to-port="0" />
		<edge from-layer="544" from-port="1" to-layer="545" to-port="1" />
		<edge from-layer="545" from-port="2" to-layer="548" to-port="0" />
		<edge from-layer="546" from-port="0" to-layer="547" to-port="0" />
		<edge from-layer="547" from-port="1" to-layer="548" to-port="1" />
		<edge from-layer="548" from-port="2" to-layer="549" to-port="0" />
		<edge from-layer="549" from-port="1" to-layer="550" to-port="1" />
		<edge from-layer="550" from-port="2" to-layer="552" to-port="0" />
		<edge from-layer="551" from-port="0" to-layer="552" to-port="1" />
		<edge from-layer="552" from-port="2" to-layer="554" to-port="0" />
		<edge from-layer="553" from-port="0" to-layer="554" to-port="1" />
		<edge from-layer="554" from-port="2" to-layer="556" to-port="0" />
		<edge from-layer="555" from-port="0" to-layer="556" to-port="1" />
		<edge from-layer="556" from-port="2" to-layer="560" to-port="0" />
		<edge from-layer="556" from-port="2" to-layer="571" to-port="0" />
		<edge from-layer="556" from-port="2" to-layer="581" to-port="0" />
		<edge from-layer="557" from-port="0" to-layer="571" to-port="1" />
		<edge from-layer="558" from-port="0" to-layer="569" to-port="0" />
		<edge from-layer="559" from-port="0" to-layer="569" to-port="1" />
		<edge from-layer="560" from-port="1" to-layer="563" to-port="0" />
		<edge from-layer="561" from-port="0" to-layer="563" to-port="1" />
		<edge from-layer="562" from-port="0" to-layer="563" to-port="2" />
		<edge from-layer="563" from-port="3" to-layer="565" to-port="0" />
		<edge from-layer="564" from-port="0" to-layer="565" to-port="1" />
		<edge from-layer="565" from-port="2" to-layer="567" to-port="0" />
		<edge from-layer="566" from-port="0" to-layer="567" to-port="1" />
		<edge from-layer="567" from-port="2" to-layer="578" to-port="0" />
		<edge from-layer="567" from-port="2" to-layer="569" to-port="2" />
		<edge from-layer="567" from-port="2" to-layer="575" to-port="2" />
		<edge from-layer="568" from-port="0" to-layer="569" to-port="3" />
		<edge from-layer="569" from-port="4" to-layer="571" to-port="2" />
		<edge from-layer="570" from-port="0" to-layer="571" to-port="3" />
		<edge from-layer="571" from-port="4" to-layer="602" to-port="0" />
		<edge from-layer="572" from-port="0" to-layer="575" to-port="0" />
		<edge from-layer="573" from-port="0" to-layer="575" to-port="1" />
		<edge from-layer="573" from-port="0" to-layer="579" to-port="1" />
		<edge from-layer="574" from-port="0" to-layer="575" to-port="3" />
		<edge from-layer="574" from-port="0" to-layer="579" to-port="3" />
		<edge from-layer="575" from-port="4" to-layer="581" to-port="1" />
		<edge from-layer="576" from-port="0" to-layer="579" to-port="0" />
		<edge from-layer="577" from-port="0" to-layer="578" to-port="1" />
		<edge from-layer="578" from-port="2" to-layer="579" to-port="2" />
		<edge from-layer="579" from-port="4" to-layer="581" to-port="2" />
		<edge from-layer="580" from-port="0" to-layer="581" to-port="3" />
		<edge from-layer="581" from-port="4" to-layer="584" to-port="0" />
		<edge from-layer="582" from-port="0" to-layer="583" to-port="0" />
		<edge from-layer="583" from-port="1" to-layer="584" to-port="1" />
		<edge from-layer="584" from-port="2" to-layer="587" to-port="0" />
		<edge from-layer="585" from-port="0" to-layer="586" to-port="0" />
		<edge from-layer="586" from-port="1" to-layer="587" to-port="1" />
		<edge from-layer="587" from-port="2" to-layer="588" to-port="0" />
		<edge from-layer="588" from-port="1" to-layer="591" to-port="0" />
		<edge from-layer="589" from-port="0" to-layer="590" to-port="0" />
		<edge from-layer="590" from-port="1" to-layer="591" to-port="1" />
		<edge from-layer="591" from-port="2" to-layer="594" to-port="0" />
		<edge from-layer="592" from-port="0" to-layer="593" to-port="0" />
		<edge from-layer="593" from-port="1" to-layer="594" to-port="1" />
		<edge from-layer="594" from-port="2" to-layer="597" to-port="0" />
		<edge from-layer="595" from-port="0" to-layer="596" to-port="0" />
		<edge from-layer="596" from-port="1" to-layer="597" to-port="1" />
		<edge from-layer="597" from-port="2" to-layer="600" to-port="0" />
		<edge from-layer="598" from-port="0" to-layer="599" to-port="0" />
		<edge from-layer="599" from-port="1" to-layer="600" to-port="1" />
		<edge from-layer="600" from-port="2" to-layer="601" to-port="0" />
		<edge from-layer="601" from-port="1" to-layer="602" to-port="1" />
		<edge from-layer="602" from-port="2" to-layer="604" to-port="0" />
		<edge from-layer="603" from-port="0" to-layer="604" to-port="1" />
		<edge from-layer="604" from-port="2" to-layer="606" to-port="0" />
		<edge from-layer="605" from-port="0" to-layer="606" to-port="1" />
		<edge from-layer="606" from-port="2" to-layer="608" to-port="0" />
		<edge from-layer="607" from-port="0" to-layer="608" to-port="1" />
		<edge from-layer="608" from-port="2" to-layer="611" to-port="0" />
		<edge from-layer="608" from-port="2" to-layer="814" to-port="1" />
		<edge from-layer="608" from-port="2" to-layer="624" to-port="0" />
		<edge from-layer="609" from-port="0" to-layer="610" to-port="0" />
		<edge from-layer="610" from-port="1" to-layer="611" to-port="1" />
		<edge from-layer="611" from-port="2" to-layer="614" to-port="0" />
		<edge from-layer="612" from-port="0" to-layer="613" to-port="0" />
		<edge from-layer="613" from-port="1" to-layer="614" to-port="1" />
		<edge from-layer="614" from-port="2" to-layer="617" to-port="0" />
		<edge from-layer="615" from-port="0" to-layer="616" to-port="0" />
		<edge from-layer="616" from-port="1" to-layer="617" to-port="1" />
		<edge from-layer="617" from-port="2" to-layer="620" to-port="0" />
		<edge from-layer="618" from-port="0" to-layer="619" to-port="0" />
		<edge from-layer="619" from-port="1" to-layer="620" to-port="1" />
		<edge from-layer="620" from-port="2" to-layer="621" to-port="0" />
		<edge from-layer="621" from-port="1" to-layer="642" to-port="0" />
		<edge from-layer="622" from-port="0" to-layer="623" to-port="0" />
		<edge from-layer="623" from-port="1" to-layer="624" to-port="1" />
		<edge from-layer="624" from-port="2" to-layer="627" to-port="0" />
		<edge from-layer="625" from-port="0" to-layer="626" to-port="0" />
		<edge from-layer="626" from-port="1" to-layer="627" to-port="1" />
		<edge from-layer="627" from-port="2" to-layer="628" to-port="0" />
		<edge from-layer="628" from-port="1" to-layer="631" to-port="0" />
		<edge from-layer="629" from-port="0" to-layer="630" to-port="0" />
		<edge from-layer="630" from-port="1" to-layer="631" to-port="1" />
		<edge from-layer="631" from-port="2" to-layer="634" to-port="0" />
		<edge from-layer="632" from-port="0" to-layer="633" to-port="0" />
		<edge from-layer="633" from-port="1" to-layer="634" to-port="1" />
		<edge from-layer="634" from-port="2" to-layer="637" to-port="0" />
		<edge from-layer="635" from-port="0" to-layer="636" to-port="0" />
		<edge from-layer="636" from-port="1" to-layer="637" to-port="1" />
		<edge from-layer="637" from-port="2" to-layer="640" to-port="0" />
		<edge from-layer="638" from-port="0" to-layer="639" to-port="0" />
		<edge from-layer="639" from-port="1" to-layer="640" to-port="1" />
		<edge from-layer="640" from-port="2" to-layer="641" to-port="0" />
		<edge from-layer="641" from-port="1" to-layer="642" to-port="1" />
		<edge from-layer="642" from-port="2" to-layer="644" to-port="0" />
		<edge from-layer="643" from-port="0" to-layer="644" to-port="1" />
		<edge from-layer="644" from-port="2" to-layer="646" to-port="0" />
		<edge from-layer="645" from-port="0" to-layer="646" to-port="1" />
		<edge from-layer="646" from-port="2" to-layer="648" to-port="0" />
		<edge from-layer="647" from-port="0" to-layer="648" to-port="1" />
		<edge from-layer="648" from-port="2" to-layer="652" to-port="0" />
		<edge from-layer="648" from-port="2" to-layer="673" to-port="0" />
		<edge from-layer="648" from-port="2" to-layer="663" to-port="0" />
		<edge from-layer="649" from-port="0" to-layer="663" to-port="1" />
		<edge from-layer="650" from-port="0" to-layer="661" to-port="0" />
		<edge from-layer="651" from-port="0" to-layer="661" to-port="1" />
		<edge from-layer="652" from-port="1" to-layer="655" to-port="0" />
		<edge from-layer="653" from-port="0" to-layer="655" to-port="1" />
		<edge from-layer="654" from-port="0" to-layer="655" to-port="2" />
		<edge from-layer="655" from-port="3" to-layer="657" to-port="0" />
		<edge from-layer="656" from-port="0" to-layer="657" to-port="1" />
		<edge from-layer="657" from-port="2" to-layer="659" to-port="0" />
		<edge from-layer="658" from-port="0" to-layer="659" to-port="1" />
		<edge from-layer="659" from-port="2" to-layer="667" to-port="2" />
		<edge from-layer="659" from-port="2" to-layer="670" to-port="0" />
		<edge from-layer="659" from-port="2" to-layer="661" to-port="2" />
		<edge from-layer="660" from-port="0" to-layer="661" to-port="3" />
		<edge from-layer="661" from-port="4" to-layer="663" to-port="2" />
		<edge from-layer="662" from-port="0" to-layer="663" to-port="3" />
		<edge from-layer="663" from-port="4" to-layer="694" to-port="0" />
		<edge from-layer="664" from-port="0" to-layer="667" to-port="0" />
		<edge from-layer="665" from-port="0" to-layer="667" to-port="1" />
		<edge from-layer="665" from-port="0" to-layer="671" to-port="1" />
		<edge from-layer="666" from-port="0" to-layer="667" to-port="3" />
		<edge from-layer="666" from-port="0" to-layer="671" to-port="3" />
		<edge from-layer="667" from-port="4" to-layer="673" to-port="1" />
		<edge from-layer="668" from-port="0" to-layer="671" to-port="0" />
		<edge from-layer="669" from-port="0" to-layer="670" to-port="1" />
		<edge from-layer="670" from-port="2" to-layer="671" to-port="2" />
		<edge from-layer="671" from-port="4" to-layer="673" to-port="2" />
		<edge from-layer="672" from-port="0" to-layer="673" to-port="3" />
		<edge from-layer="673" from-port="4" to-layer="676" to-port="0" />
		<edge from-layer="674" from-port="0" to-layer="675" to-port="0" />
		<edge from-layer="675" from-port="1" to-layer="676" to-port="1" />
		<edge from-layer="676" from-port="2" to-layer="679" to-port="0" />
		<edge from-layer="677" from-port="0" to-layer="678" to-port="0" />
		<edge from-layer="678" from-port="1" to-layer="679" to-port="1" />
		<edge from-layer="679" from-port="2" to-layer="680" to-port="0" />
		<edge from-layer="680" from-port="1" to-layer="683" to-port="0" />
		<edge from-layer="681" from-port="0" to-layer="682" to-port="0" />
		<edge from-layer="682" from-port="1" to-layer="683" to-port="1" />
		<edge from-layer="683" from-port="2" to-layer="686" to-port="0" />
		<edge from-layer="684" from-port="0" to-layer="685" to-port="0" />
		<edge from-layer="685" from-port="1" to-layer="686" to-port="1" />
		<edge from-layer="686" from-port="2" to-layer="689" to-port="0" />
		<edge from-layer="687" from-port="0" to-layer="688" to-port="0" />
		<edge from-layer="688" from-port="1" to-layer="689" to-port="1" />
		<edge from-layer="689" from-port="2" to-layer="692" to-port="0" />
		<edge from-layer="690" from-port="0" to-layer="691" to-port="0" />
		<edge from-layer="691" from-port="1" to-layer="692" to-port="1" />
		<edge from-layer="692" from-port="2" to-layer="693" to-port="0" />
		<edge from-layer="693" from-port="1" to-layer="694" to-port="1" />
		<edge from-layer="694" from-port="2" to-layer="696" to-port="0" />
		<edge from-layer="695" from-port="0" to-layer="696" to-port="1" />
		<edge from-layer="696" from-port="2" to-layer="698" to-port="0" />
		<edge from-layer="697" from-port="0" to-layer="698" to-port="1" />
		<edge from-layer="698" from-port="2" to-layer="700" to-port="0" />
		<edge from-layer="699" from-port="0" to-layer="700" to-port="1" />
		<edge from-layer="700" from-port="2" to-layer="704" to-port="0" />
		<edge from-layer="700" from-port="2" to-layer="725" to-port="0" />
		<edge from-layer="700" from-port="2" to-layer="715" to-port="0" />
		<edge from-layer="701" from-port="0" to-layer="715" to-port="1" />
		<edge from-layer="702" from-port="0" to-layer="713" to-port="0" />
		<edge from-layer="703" from-port="0" to-layer="713" to-port="1" />
		<edge from-layer="704" from-port="1" to-layer="707" to-port="0" />
		<edge from-layer="705" from-port="0" to-layer="707" to-port="1" />
		<edge from-layer="706" from-port="0" to-layer="707" to-port="2" />
		<edge from-layer="707" from-port="3" to-layer="709" to-port="0" />
		<edge from-layer="708" from-port="0" to-layer="709" to-port="1" />
		<edge from-layer="709" from-port="2" to-layer="711" to-port="0" />
		<edge from-layer="710" from-port="0" to-layer="711" to-port="1" />
		<edge from-layer="711" from-port="2" to-layer="713" to-port="2" />
		<edge from-layer="711" from-port="2" to-layer="722" to-port="0" />
		<edge from-layer="711" from-port="2" to-layer="719" to-port="2" />
		<edge from-layer="712" from-port="0" to-layer="713" to-port="3" />
		<edge from-layer="713" from-port="4" to-layer="715" to-port="2" />
		<edge from-layer="714" from-port="0" to-layer="715" to-port="3" />
		<edge from-layer="715" from-port="4" to-layer="746" to-port="0" />
		<edge from-layer="716" from-port="0" to-layer="719" to-port="0" />
		<edge from-layer="717" from-port="0" to-layer="723" to-port="1" />
		<edge from-layer="717" from-port="0" to-layer="719" to-port="1" />
		<edge from-layer="718" from-port="0" to-layer="719" to-port="3" />
		<edge from-layer="718" from-port="0" to-layer="723" to-port="3" />
		<edge from-layer="719" from-port="4" to-layer="725" to-port="1" />
		<edge from-layer="720" from-port="0" to-layer="723" to-port="0" />
		<edge from-layer="721" from-port="0" to-layer="722" to-port="1" />
		<edge from-layer="722" from-port="2" to-layer="723" to-port="2" />
		<edge from-layer="723" from-port="4" to-layer="725" to-port="2" />
		<edge from-layer="724" from-port="0" to-layer="725" to-port="3" />
		<edge from-layer="725" from-port="4" to-layer="728" to-port="0" />
		<edge from-layer="726" from-port="0" to-layer="727" to-port="0" />
		<edge from-layer="727" from-port="1" to-layer="728" to-port="1" />
		<edge from-layer="728" from-port="2" to-layer="731" to-port="0" />
		<edge from-layer="729" from-port="0" to-layer="730" to-port="0" />
		<edge from-layer="730" from-port="1" to-layer="731" to-port="1" />
		<edge from-layer="731" from-port="2" to-layer="732" to-port="0" />
		<edge from-layer="732" from-port="1" to-layer="735" to-port="0" />
		<edge from-layer="733" from-port="0" to-layer="734" to-port="0" />
		<edge from-layer="734" from-port="1" to-layer="735" to-port="1" />
		<edge from-layer="735" from-port="2" to-layer="738" to-port="0" />
		<edge from-layer="736" from-port="0" to-layer="737" to-port="0" />
		<edge from-layer="737" from-port="1" to-layer="738" to-port="1" />
		<edge from-layer="738" from-port="2" to-layer="741" to-port="0" />
		<edge from-layer="739" from-port="0" to-layer="740" to-port="0" />
		<edge from-layer="740" from-port="1" to-layer="741" to-port="1" />
		<edge from-layer="741" from-port="2" to-layer="744" to-port="0" />
		<edge from-layer="742" from-port="0" to-layer="743" to-port="0" />
		<edge from-layer="743" from-port="1" to-layer="744" to-port="1" />
		<edge from-layer="744" from-port="2" to-layer="745" to-port="0" />
		<edge from-layer="745" from-port="1" to-layer="746" to-port="1" />
		<edge from-layer="746" from-port="2" to-layer="748" to-port="0" />
		<edge from-layer="747" from-port="0" to-layer="748" to-port="1" />
		<edge from-layer="748" from-port="2" to-layer="750" to-port="0" />
		<edge from-layer="749" from-port="0" to-layer="750" to-port="1" />
		<edge from-layer="750" from-port="2" to-layer="752" to-port="0" />
		<edge from-layer="751" from-port="0" to-layer="752" to-port="1" />
		<edge from-layer="752" from-port="2" to-layer="756" to-port="0" />
		<edge from-layer="752" from-port="2" to-layer="777" to-port="0" />
		<edge from-layer="752" from-port="2" to-layer="767" to-port="0" />
		<edge from-layer="753" from-port="0" to-layer="767" to-port="1" />
		<edge from-layer="754" from-port="0" to-layer="765" to-port="0" />
		<edge from-layer="755" from-port="0" to-layer="765" to-port="1" />
		<edge from-layer="756" from-port="1" to-layer="759" to-port="0" />
		<edge from-layer="757" from-port="0" to-layer="759" to-port="1" />
		<edge from-layer="758" from-port="0" to-layer="759" to-port="2" />
		<edge from-layer="759" from-port="3" to-layer="761" to-port="0" />
		<edge from-layer="760" from-port="0" to-layer="761" to-port="1" />
		<edge from-layer="761" from-port="2" to-layer="763" to-port="0" />
		<edge from-layer="762" from-port="0" to-layer="763" to-port="1" />
		<edge from-layer="763" from-port="2" to-layer="774" to-port="0" />
		<edge from-layer="763" from-port="2" to-layer="771" to-port="2" />
		<edge from-layer="763" from-port="2" to-layer="765" to-port="2" />
		<edge from-layer="764" from-port="0" to-layer="765" to-port="3" />
		<edge from-layer="765" from-port="4" to-layer="767" to-port="2" />
		<edge from-layer="766" from-port="0" to-layer="767" to-port="3" />
		<edge from-layer="767" from-port="4" to-layer="798" to-port="0" />
		<edge from-layer="768" from-port="0" to-layer="771" to-port="0" />
		<edge from-layer="769" from-port="0" to-layer="771" to-port="1" />
		<edge from-layer="769" from-port="0" to-layer="775" to-port="1" />
		<edge from-layer="770" from-port="0" to-layer="771" to-port="3" />
		<edge from-layer="770" from-port="0" to-layer="775" to-port="3" />
		<edge from-layer="771" from-port="4" to-layer="777" to-port="1" />
		<edge from-layer="772" from-port="0" to-layer="775" to-port="0" />
		<edge from-layer="773" from-port="0" to-layer="774" to-port="1" />
		<edge from-layer="774" from-port="2" to-layer="775" to-port="2" />
		<edge from-layer="775" from-port="4" to-layer="777" to-port="2" />
		<edge from-layer="776" from-port="0" to-layer="777" to-port="3" />
		<edge from-layer="777" from-port="4" to-layer="780" to-port="0" />
		<edge from-layer="778" from-port="0" to-layer="779" to-port="0" />
		<edge from-layer="779" from-port="1" to-layer="780" to-port="1" />
		<edge from-layer="780" from-port="2" to-layer="783" to-port="0" />
		<edge from-layer="781" from-port="0" to-layer="782" to-port="0" />
		<edge from-layer="782" from-port="1" to-layer="783" to-port="1" />
		<edge from-layer="783" from-port="2" to-layer="784" to-port="0" />
		<edge from-layer="784" from-port="1" to-layer="787" to-port="0" />
		<edge from-layer="785" from-port="0" to-layer="786" to-port="0" />
		<edge from-layer="786" from-port="1" to-layer="787" to-port="1" />
		<edge from-layer="787" from-port="2" to-layer="790" to-port="0" />
		<edge from-layer="788" from-port="0" to-layer="789" to-port="0" />
		<edge from-layer="789" from-port="1" to-layer="790" to-port="1" />
		<edge from-layer="790" from-port="2" to-layer="793" to-port="0" />
		<edge from-layer="791" from-port="0" to-layer="792" to-port="0" />
		<edge from-layer="792" from-port="1" to-layer="793" to-port="1" />
		<edge from-layer="793" from-port="2" to-layer="796" to-port="0" />
		<edge from-layer="794" from-port="0" to-layer="795" to-port="0" />
		<edge from-layer="795" from-port="1" to-layer="796" to-port="1" />
		<edge from-layer="796" from-port="2" to-layer="797" to-port="0" />
		<edge from-layer="797" from-port="1" to-layer="798" to-port="1" />
		<edge from-layer="798" from-port="2" to-layer="800" to-port="0" />
		<edge from-layer="799" from-port="0" to-layer="800" to-port="1" />
		<edge from-layer="800" from-port="2" to-layer="802" to-port="0" />
		<edge from-layer="801" from-port="0" to-layer="802" to-port="1" />
		<edge from-layer="802" from-port="2" to-layer="804" to-port="0" />
		<edge from-layer="803" from-port="0" to-layer="804" to-port="1" />
		<edge from-layer="804" from-port="2" to-layer="807" to-port="0" />
		<edge from-layer="805" from-port="0" to-layer="806" to-port="0" />
		<edge from-layer="806" from-port="1" to-layer="807" to-port="1" />
		<edge from-layer="807" from-port="2" to-layer="810" to-port="0" />
		<edge from-layer="808" from-port="0" to-layer="809" to-port="0" />
		<edge from-layer="809" from-port="1" to-layer="810" to-port="1" />
		<edge from-layer="810" from-port="2" to-layer="811" to-port="0" />
		<edge from-layer="811" from-port="1" to-layer="813" to-port="0" />
		<edge from-layer="811" from-port="1" to-layer="974" to-port="1" />
		<edge from-layer="812" from-port="0" to-layer="813" to-port="1" />
		<edge from-layer="813" from-port="2" to-layer="814" to-port="0" />
		<edge from-layer="814" from-port="2" to-layer="817" to-port="0" />
		<edge from-layer="814" from-port="2" to-layer="838" to-port="0" />
		<edge from-layer="815" from-port="0" to-layer="816" to-port="0" />
		<edge from-layer="816" from-port="1" to-layer="817" to-port="1" />
		<edge from-layer="817" from-port="2" to-layer="820" to-port="0" />
		<edge from-layer="818" from-port="0" to-layer="819" to-port="0" />
		<edge from-layer="819" from-port="1" to-layer="820" to-port="1" />
		<edge from-layer="820" from-port="2" to-layer="821" to-port="0" />
		<edge from-layer="821" from-port="1" to-layer="824" to-port="0" />
		<edge from-layer="822" from-port="0" to-layer="823" to-port="0" />
		<edge from-layer="823" from-port="1" to-layer="824" to-port="1" />
		<edge from-layer="824" from-port="2" to-layer="827" to-port="0" />
		<edge from-layer="825" from-port="0" to-layer="826" to-port="0" />
		<edge from-layer="826" from-port="1" to-layer="827" to-port="1" />
		<edge from-layer="827" from-port="2" to-layer="828" to-port="0" />
		<edge from-layer="828" from-port="1" to-layer="831" to-port="0" />
		<edge from-layer="829" from-port="0" to-layer="830" to-port="0" />
		<edge from-layer="830" from-port="1" to-layer="831" to-port="1" />
		<edge from-layer="831" from-port="2" to-layer="834" to-port="0" />
		<edge from-layer="832" from-port="0" to-layer="833" to-port="0" />
		<edge from-layer="833" from-port="1" to-layer="834" to-port="1" />
		<edge from-layer="834" from-port="2" to-layer="835" to-port="0" />
		<edge from-layer="835" from-port="1" to-layer="843" to-port="0" />
		<edge from-layer="836" from-port="0" to-layer="837" to-port="0" />
		<edge from-layer="837" from-port="1" to-layer="838" to-port="1" />
		<edge from-layer="838" from-port="2" to-layer="841" to-port="0" />
		<edge from-layer="839" from-port="0" to-layer="840" to-port="0" />
		<edge from-layer="840" from-port="1" to-layer="841" to-port="1" />
		<edge from-layer="841" from-port="2" to-layer="842" to-port="0" />
		<edge from-layer="842" from-port="1" to-layer="843" to-port="1" />
		<edge from-layer="843" from-port="2" to-layer="846" to-port="0" />
		<edge from-layer="844" from-port="0" to-layer="845" to-port="0" />
		<edge from-layer="845" from-port="1" to-layer="846" to-port="1" />
		<edge from-layer="846" from-port="2" to-layer="849" to-port="0" />
		<edge from-layer="847" from-port="0" to-layer="848" to-port="0" />
		<edge from-layer="848" from-port="1" to-layer="849" to-port="1" />
		<edge from-layer="849" from-port="2" to-layer="850" to-port="0" />
		<edge from-layer="850" from-port="1" to-layer="853" to-port="0" />
		<edge from-layer="851" from-port="0" to-layer="852" to-port="0" />
		<edge from-layer="852" from-port="1" to-layer="853" to-port="1" />
		<edge from-layer="853" from-port="2" to-layer="856" to-port="0" />
		<edge from-layer="854" from-port="0" to-layer="855" to-port="0" />
		<edge from-layer="855" from-port="1" to-layer="856" to-port="1" />
		<edge from-layer="856" from-port="2" to-layer="857" to-port="0" />
		<edge from-layer="857" from-port="1" to-layer="859" to-port="0" />
		<edge from-layer="857" from-port="1" to-layer="917" to-port="1" />
		<edge from-layer="858" from-port="0" to-layer="859" to-port="1" />
		<edge from-layer="859" from-port="2" to-layer="860" to-port="0" />
		<edge from-layer="860" from-port="2" to-layer="863" to-port="0" />
		<edge from-layer="860" from-port="2" to-layer="884" to-port="0" />
		<edge from-layer="861" from-port="0" to-layer="862" to-port="0" />
		<edge from-layer="862" from-port="1" to-layer="863" to-port="1" />
		<edge from-layer="863" from-port="2" to-layer="866" to-port="0" />
		<edge from-layer="864" from-port="0" to-layer="865" to-port="0" />
		<edge from-layer="865" from-port="1" to-layer="866" to-port="1" />
		<edge from-layer="866" from-port="2" to-layer="867" to-port="0" />
		<edge from-layer="867" from-port="1" to-layer="870" to-port="0" />
		<edge from-layer="868" from-port="0" to-layer="869" to-port="0" />
		<edge from-layer="869" from-port="1" to-layer="870" to-port="1" />
		<edge from-layer="870" from-port="2" to-layer="873" to-port="0" />
		<edge from-layer="871" from-port="0" to-layer="872" to-port="0" />
		<edge from-layer="872" from-port="1" to-layer="873" to-port="1" />
		<edge from-layer="873" from-port="2" to-layer="874" to-port="0" />
		<edge from-layer="874" from-port="1" to-layer="877" to-port="0" />
		<edge from-layer="875" from-port="0" to-layer="876" to-port="0" />
		<edge from-layer="876" from-port="1" to-layer="877" to-port="1" />
		<edge from-layer="877" from-port="2" to-layer="880" to-port="0" />
		<edge from-layer="878" from-port="0" to-layer="879" to-port="0" />
		<edge from-layer="879" from-port="1" to-layer="880" to-port="1" />
		<edge from-layer="880" from-port="2" to-layer="881" to-port="0" />
		<edge from-layer="881" from-port="1" to-layer="889" to-port="0" />
		<edge from-layer="882" from-port="0" to-layer="883" to-port="0" />
		<edge from-layer="883" from-port="1" to-layer="884" to-port="1" />
		<edge from-layer="884" from-port="2" to-layer="887" to-port="0" />
		<edge from-layer="885" from-port="0" to-layer="886" to-port="0" />
		<edge from-layer="886" from-port="1" to-layer="887" to-port="1" />
		<edge from-layer="887" from-port="2" to-layer="888" to-port="0" />
		<edge from-layer="888" from-port="1" to-layer="889" to-port="1" />
		<edge from-layer="889" from-port="2" to-layer="892" to-port="0" />
		<edge from-layer="890" from-port="0" to-layer="891" to-port="0" />
		<edge from-layer="891" from-port="1" to-layer="892" to-port="1" />
		<edge from-layer="892" from-port="2" to-layer="895" to-port="0" />
		<edge from-layer="893" from-port="0" to-layer="894" to-port="0" />
		<edge from-layer="894" from-port="1" to-layer="895" to-port="1" />
		<edge from-layer="895" from-port="2" to-layer="896" to-port="0" />
		<edge from-layer="896" from-port="1" to-layer="899" to-port="0" />
		<edge from-layer="896" from-port="1" to-layer="912" to-port="0" />
		<edge from-layer="897" from-port="0" to-layer="898" to-port="0" />
		<edge from-layer="898" from-port="1" to-layer="899" to-port="1" />
		<edge from-layer="899" from-port="2" to-layer="902" to-port="0" />
		<edge from-layer="900" from-port="0" to-layer="901" to-port="0" />
		<edge from-layer="901" from-port="1" to-layer="902" to-port="1" />
		<edge from-layer="902" from-port="2" to-layer="904" to-port="0" />
		<edge from-layer="903" from-port="0" to-layer="904" to-port="1" />
		<edge from-layer="904" from-port="2" to-layer="906" to-port="0" />
		<edge from-layer="905" from-port="0" to-layer="906" to-port="1" />
		<edge from-layer="906" from-port="2" to-layer="907" to-port="0" />
		<edge from-layer="907" from-port="1" to-layer="909" to-port="0" />
		<edge from-layer="908" from-port="0" to-layer="909" to-port="1" />
		<edge from-layer="909" from-port="2" to-layer="1024" to-port="0" />
		<edge from-layer="910" from-port="0" to-layer="911" to-port="0" />
		<edge from-layer="911" from-port="1" to-layer="912" to-port="1" />
		<edge from-layer="912" from-port="2" to-layer="915" to-port="0" />
		<edge from-layer="913" from-port="0" to-layer="914" to-port="0" />
		<edge from-layer="914" from-port="1" to-layer="915" to-port="1" />
		<edge from-layer="915" from-port="2" to-layer="916" to-port="0" />
		<edge from-layer="916" from-port="1" to-layer="917" to-port="0" />
		<edge from-layer="917" from-port="2" to-layer="920" to-port="0" />
		<edge from-layer="917" from-port="2" to-layer="941" to-port="0" />
		<edge from-layer="918" from-port="0" to-layer="919" to-port="0" />
		<edge from-layer="919" from-port="1" to-layer="920" to-port="1" />
		<edge from-layer="920" from-port="2" to-layer="923" to-port="0" />
		<edge from-layer="921" from-port="0" to-layer="922" to-port="0" />
		<edge from-layer="922" from-port="1" to-layer="923" to-port="1" />
		<edge from-layer="923" from-port="2" to-layer="924" to-port="0" />
		<edge from-layer="924" from-port="1" to-layer="927" to-port="0" />
		<edge from-layer="925" from-port="0" to-layer="926" to-port="0" />
		<edge from-layer="926" from-port="1" to-layer="927" to-port="1" />
		<edge from-layer="927" from-port="2" to-layer="930" to-port="0" />
		<edge from-layer="928" from-port="0" to-layer="929" to-port="0" />
		<edge from-layer="929" from-port="1" to-layer="930" to-port="1" />
		<edge from-layer="930" from-port="2" to-layer="931" to-port="0" />
		<edge from-layer="931" from-port="1" to-layer="934" to-port="0" />
		<edge from-layer="932" from-port="0" to-layer="933" to-port="0" />
		<edge from-layer="933" from-port="1" to-layer="934" to-port="1" />
		<edge from-layer="934" from-port="2" to-layer="937" to-port="0" />
		<edge from-layer="935" from-port="0" to-layer="936" to-port="0" />
		<edge from-layer="936" from-port="1" to-layer="937" to-port="1" />
		<edge from-layer="937" from-port="2" to-layer="938" to-port="0" />
		<edge from-layer="938" from-port="1" to-layer="946" to-port="0" />
		<edge from-layer="939" from-port="0" to-layer="940" to-port="0" />
		<edge from-layer="940" from-port="1" to-layer="941" to-port="1" />
		<edge from-layer="941" from-port="2" to-layer="944" to-port="0" />
		<edge from-layer="942" from-port="0" to-layer="943" to-port="0" />
		<edge from-layer="943" from-port="1" to-layer="944" to-port="1" />
		<edge from-layer="944" from-port="2" to-layer="945" to-port="0" />
		<edge from-layer="945" from-port="1" to-layer="946" to-port="1" />
		<edge from-layer="946" from-port="2" to-layer="949" to-port="0" />
		<edge from-layer="947" from-port="0" to-layer="948" to-port="0" />
		<edge from-layer="948" from-port="1" to-layer="949" to-port="1" />
		<edge from-layer="949" from-port="2" to-layer="952" to-port="0" />
		<edge from-layer="950" from-port="0" to-layer="951" to-port="0" />
		<edge from-layer="951" from-port="1" to-layer="952" to-port="1" />
		<edge from-layer="952" from-port="2" to-layer="953" to-port="0" />
		<edge from-layer="953" from-port="1" to-layer="956" to-port="0" />
		<edge from-layer="953" from-port="1" to-layer="969" to-port="0" />
		<edge from-layer="954" from-port="0" to-layer="955" to-port="0" />
		<edge from-layer="955" from-port="1" to-layer="956" to-port="1" />
		<edge from-layer="956" from-port="2" to-layer="959" to-port="0" />
		<edge from-layer="957" from-port="0" to-layer="958" to-port="0" />
		<edge from-layer="958" from-port="1" to-layer="959" to-port="1" />
		<edge from-layer="959" from-port="2" to-layer="961" to-port="0" />
		<edge from-layer="960" from-port="0" to-layer="961" to-port="1" />
		<edge from-layer="961" from-port="2" to-layer="963" to-port="0" />
		<edge from-layer="962" from-port="0" to-layer="963" to-port="1" />
		<edge from-layer="963" from-port="2" to-layer="964" to-port="0" />
		<edge from-layer="964" from-port="1" to-layer="966" to-port="0" />
		<edge from-layer="965" from-port="0" to-layer="966" to-port="1" />
		<edge from-layer="966" from-port="2" to-layer="1024" to-port="1" />
		<edge from-layer="967" from-port="0" to-layer="968" to-port="0" />
		<edge from-layer="968" from-port="1" to-layer="969" to-port="1" />
		<edge from-layer="969" from-port="2" to-layer="972" to-port="0" />
		<edge from-layer="970" from-port="0" to-layer="971" to-port="0" />
		<edge from-layer="971" from-port="1" to-layer="972" to-port="1" />
		<edge from-layer="972" from-port="2" to-layer="973" to-port="0" />
		<edge from-layer="973" from-port="1" to-layer="974" to-port="0" />
		<edge from-layer="974" from-port="2" to-layer="977" to-port="0" />
		<edge from-layer="974" from-port="2" to-layer="998" to-port="0" />
		<edge from-layer="975" from-port="0" to-layer="976" to-port="0" />
		<edge from-layer="976" from-port="1" to-layer="977" to-port="1" />
		<edge from-layer="977" from-port="2" to-layer="980" to-port="0" />
		<edge from-layer="978" from-port="0" to-layer="979" to-port="0" />
		<edge from-layer="979" from-port="1" to-layer="980" to-port="1" />
		<edge from-layer="980" from-port="2" to-layer="981" to-port="0" />
		<edge from-layer="981" from-port="1" to-layer="984" to-port="0" />
		<edge from-layer="982" from-port="0" to-layer="983" to-port="0" />
		<edge from-layer="983" from-port="1" to-layer="984" to-port="1" />
		<edge from-layer="984" from-port="2" to-layer="987" to-port="0" />
		<edge from-layer="985" from-port="0" to-layer="986" to-port="0" />
		<edge from-layer="986" from-port="1" to-layer="987" to-port="1" />
		<edge from-layer="987" from-port="2" to-layer="988" to-port="0" />
		<edge from-layer="988" from-port="1" to-layer="991" to-port="0" />
		<edge from-layer="989" from-port="0" to-layer="990" to-port="0" />
		<edge from-layer="990" from-port="1" to-layer="991" to-port="1" />
		<edge from-layer="991" from-port="2" to-layer="994" to-port="0" />
		<edge from-layer="992" from-port="0" to-layer="993" to-port="0" />
		<edge from-layer="993" from-port="1" to-layer="994" to-port="1" />
		<edge from-layer="994" from-port="2" to-layer="995" to-port="0" />
		<edge from-layer="995" from-port="1" to-layer="1003" to-port="0" />
		<edge from-layer="996" from-port="0" to-layer="997" to-port="0" />
		<edge from-layer="997" from-port="1" to-layer="998" to-port="1" />
		<edge from-layer="998" from-port="2" to-layer="1001" to-port="0" />
		<edge from-layer="999" from-port="0" to-layer="1000" to-port="0" />
		<edge from-layer="1000" from-port="1" to-layer="1001" to-port="1" />
		<edge from-layer="1001" from-port="2" to-layer="1002" to-port="0" />
		<edge from-layer="1002" from-port="1" to-layer="1003" to-port="1" />
		<edge from-layer="1003" from-port="2" to-layer="1006" to-port="0" />
		<edge from-layer="1004" from-port="0" to-layer="1005" to-port="0" />
		<edge from-layer="1005" from-port="1" to-layer="1006" to-port="1" />
		<edge from-layer="1006" from-port="2" to-layer="1009" to-port="0" />
		<edge from-layer="1007" from-port="0" to-layer="1008" to-port="0" />
		<edge from-layer="1008" from-port="1" to-layer="1009" to-port="1" />
		<edge from-layer="1009" from-port="2" to-layer="1010" to-port="0" />
		<edge from-layer="1010" from-port="1" to-layer="1013" to-port="0" />
		<edge from-layer="1011" from-port="0" to-layer="1012" to-port="0" />
		<edge from-layer="1012" from-port="1" to-layer="1013" to-port="1" />
		<edge from-layer="1013" from-port="2" to-layer="1016" to-port="0" />
		<edge from-layer="1014" from-port="0" to-layer="1015" to-port="0" />
		<edge from-layer="1015" from-port="1" to-layer="1016" to-port="1" />
		<edge from-layer="1016" from-port="2" to-layer="1018" to-port="0" />
		<edge from-layer="1017" from-port="0" to-layer="1018" to-port="1" />
		<edge from-layer="1018" from-port="2" to-layer="1020" to-port="0" />
		<edge from-layer="1019" from-port="0" to-layer="1020" to-port="1" />
		<edge from-layer="1020" from-port="2" to-layer="1021" to-port="0" />
		<edge from-layer="1021" from-port="1" to-layer="1023" to-port="0" />
		<edge from-layer="1022" from-port="0" to-layer="1023" to-port="1" />
		<edge from-layer="1023" from-port="2" to-layer="1024" to-port="2" />
		<edge from-layer="1024" from-port="3" to-layer="1025" to-port="0" />
	</edges>
	<rt_info>
		<MO_version value="2023.1.0-12185-9e6b00e51cd-releases/2023/1" />
		<Runtime_version value="2023.1.0-12185-9e6b00e51cd-releases/2023/1" />
		<conversion_parameters>
			<input_model value="DIR\1001_train.onnx" />
			<is_python_api_used value="False" />
			<output_dir value="DIR" />
		</conversion_parameters>
		<legacy_frontend value="False" />
	</rt_info>
</net>
